models/federated_model.pth (torch, 17738 bytes, 10 tensors)

network.0.weight f4 [64, 12]
000000 5f 45 d1 3c 6d 0a 7c 3e d7 4b 62 3e d4 da 67 be
       0.025545774 0.24613352 0.22099243 -0.2264207
000010 cd e8 c0 bd 4d f6 ca 3c 39 86 87 be 34 46 a6 3e
       -0.09419403 0.024775648 -0.2646959 0.32475436
000020 54 6a 8a 3e b7 02 a0 bd 7b b7 6a be c4 af ab 3d
       0.27034247 -0.07813018 -0.22921555 0.08383134
000030 63 db 63 be 01 77 89 3e 77 fe 84 3d 1d 38 0c be
       -0.22251658 0.26848605 0.06493848 -0.1369328
000040 d1 ff a9 3e f5 ee 39 be df 7e 7d 3e 9b 17 b3 bd
       0.33202985 -0.18157561 0.24755429 -0.08744737
000050 89 81 86 3d 76 c7 0b be 25 c0 b2 3b d1 2b 3a 3e
       0.065676756 -0.13650307 0.0054550343 0.18180777
000060 9c 33 85 3e 0b e8 fa 3b 6d bb 05 be 6d 8e 3f be
       0.26015937 0.007657056 -0.13059779 -0.18706675
000070 72 45 04 3e 10 10 ce 3d ea 0d 81 bd d0 3f 80 bc
       0.12917116 0.100616574 -0.06301482 -0.015655428
000080 b7 4c 35 3e a8 89 2b be 8f 8d 72 3e 54 6f 31 3d
       0.17705046 -0.1675173 0.23686813 0.04331906
000090 bd 91 72 be 29 9e 72 3e 55 2b 7e 3e 18 03 fd bd
       -0.23688407 0.23693146 0.24821217 -0.12354106
0000a0 4c f1 42 bd cb 0f 55 3d a5 8e da 3d af f4 d1 bd
       -0.0475934 0.052017014 0.106717385 -0.10251748
0000b0 6d 4a 94 be 35 15 a4 be 13 61 fe bd 71 6e 5c be
       -0.28963032 -0.3204743 -0.12420859 -0.21526505
0000c0 8c f8 c5 bd 9d e7 31 3e 81 de 98 be 4b 62 90 bd
       -0.09666547 0.1737351 -0.29857257 -0.07049998
0000d0 90 85 b6 3d 49 60 a2 3d 95 cd ff 3c 91 20 1c 3d
       0.08912194 0.07928521 0.031225959 0.038116995
0000e0 7c 4e 42 be 6f e6 0b 3e 49 4e e7 bd 55 87 fa 3d
       -0.18975252 0.13662122 -0.112942286 0.12232844
0000f0 dc aa 54 3e b3 72 24 3e 9d 98 21 3e 5b cf 29 3e
       0.20768303 0.1605938 0.15780874 0.16583006
000100 ca 63 24 3e 63 62 c0 3d 7b 70 fb bd 9c 6d 7c be
       0.16053692 0.09393766 -0.12277313 -0.24651188
000110 85 05 a1 3d ec e9 93 bd 49 c2 22 3e 5c 50 91 3e
       0.07862381 -0.072223514 0.15894426 0.28381622
000120 40 25 0b 3e f5 89 87 3e 4b 23 cc 3d 65 c0 3f be
       0.13588428 0.2647244 0.09967669 -0.18725736
000130 d9 35 c2 bd f7 bf c7 3d bc 9c 01 be 24 c9 73 be
       -0.09482927 0.09753411 -0.12657446 -0.23807198
000140 bd 8c 42 bd c8 0a c9 3d 45 ce 4e 3e 87 6a e3 3d
       -0.0474975 0.098165095 0.20195873 0.11104303
000150 03 f3 02 3e f5 4a 13 be b7 9f da bd 63 02 47 bd
       0.12788014 -0.14384063 -0.106749944 -0.04858626
000160 8b 82 77 3e 89 a4 81 be 93 40 f6 bd 1d 5c 4e be
       0.24170892 -0.25320843 -0.12024035 -0.20152326
000170 3b 64 3b 3e bd a1 32 3e 70 6e 85 3e 9f a1 88 3d
       0.18299954 0.17444511 0.2606082 0.06671452
000180 30 dd 57 be 68 5e 87 bc a5 c1 ce bd 0b 00 92 be
       -0.2108047 -0.016524509 -0.100955285 -0.28515658
000190 05 9d 4e be 6b 61 3c be cb 36 46 be 7d a0 87 3e
       -0.20177086 -0.18396537 -0.1935684 0.2648963
0001a0 7b 0f 04 3e 77 de fc bc 63 bb 5b be dd f8 88 be
       0.1289653 -0.030867798 -0.21458201 -0.26752368
0001b0 69 dd 2e 3d 7d f5 38 3b fe 7c 8a bd 69 6f a6 3e
       0.042691622 0.0028222494 -0.067621216 0.32506874
0001c0 38 c0 9f 3d e1 4f 2a 3e a4 6f 00 3d 21 81 84 be
       0.07800335 0.16632034 0.03135647 -0.25879768
0001d0 e5 79 45 3e b4 24 00 3d 99 a7 3b be c2 2d 13 3e
       0.1928478 0.031285003 -0.18325652 0.14372924
0001e0 f8 2b 92 be 48 7b b0 3d 9e 3e 94 be 93 fd 1e 3c
       -0.2854917 0.08617264 -0.28954023 0.0097040115
0001f0 a8 a6 4e be 03 48 61 be d7 59 50 be a4 12 e5 3d
       -0.20180762 -0.22000127 -0.20346771 0.11185196
000200 f7 1e a0 bd f3 93 16 be 90 19 f1 3d fd 62 bd 3c
       -0.07818406 -0.14704876 0.11772454 0.02311849
000210 c1 a7 9e 3d 59 f8 43 be 97 2f 34 3e 36 92 96 3e
       0.0774684 -0.19137706 0.17596279 0.29408425
000220 74 48 a6 3e 87 2c 83 bd ed fb 60 3c e5 6a 16 bb
       0.32477152 -0.06404977 0.013731939 -0.0022951898
000230 71 d0 43 3e 91 a5 1e 3e 08 57 31 bd 2d e2 50 3e
       0.19122483 0.15492846 -0.04329589 0.20398779
000240 e4 8e 21 be 95 ba f1 bd 33 49 aa 3e 91 a4 09 be
       -0.15777165 -0.11803166 0.33258972 -0.13441683
000250 18 84 2b 3d 51 81 12 3e db e2 27 be 9d be 2c 3e
       0.04187402 0.14307143 -0.16395132 0.16869588
000260 fa 7a a6 bd 70 e2 a2 3e b4 d6 87 3e 89 37 78 3e
       -0.08128925 0.31813383 0.26530993 0.24239935
000270 e8 93 06 be 5d 35 b0 3c cb b5 a8 3a 50 c8 5c 3e
       -0.1314236 0.02150982 0.0012871561 0.21560788
000280 bd 83 89 3e c8 d5 3b 3e d1 35 80 3d e4 9c 87 bd
       0.2685832 0.1834327 0.06260265 -0.066217214
000290 9b f1 94 3d c8 bd 89 3e 7f 8b 08 be 90 29 81 bc
       0.07272645 0.26902604 -0.13334464 -0.015766889
0002a0 30 71 11 be 95 5d a7 bd dc 8b 91 3e 27 82 e9 3d
       -0.14203334 -0.08172146 0.28427017 0.11401778
0002b0 15 8f f8 3d d8 2c 17 be 23 2b 33 3d 4f 92 57 3e
       0.12136666 -0.147632 0.04374231 0.21051906
0002c0 55 8d c7 3d ec c2 50 be a7 03 71 3e cd b9 13 bd
       0.09743754 -0.20386857 0.2353655 -0.036065865
0002d0 d0 c7 7f 3e 40 fd 30 3e d8 87 0b be ad 4b 09 3e
       0.24978566 0.17284107 -0.13626039 0.13407774
0002e0 83 0a 45 bd 54 d8 85 3e df a7 55 be 5b 1b 4e 3c
       -0.048105728 0.26141608 -0.20864819 0.012579764
0002f0 f0 51 e6 bc b8 06 17 3d c0 3f 66 3e a7 fc 23 3e
       -0.028115243 0.036871642 0.22485256 0.16014348
000300 c5 63 2c 3e 25 e5 3a 3e 4e 82 11 bd 64 81 65 3e
       0.16834934 0.18251474 -0.03552466 0.2241264
000310 6b 3e 63 3e 7d 8e 99 3e 0c c5 7d 3d e8 5d c4 3c
       0.2219178 0.29991522 0.061955497 0.02397056
000320 7c e8 5c 3e 43 dc fa bd 34 ec 15 3e ec 9d 2f 3e
       0.21573061 -0.12249043 0.14640886 0.17150086
000330 73 4d 6e 3e bd d4 a7 bd 49 2b 84 3e 7f c3 1e 3e
       0.23271732 -0.081948735 0.25814274 0.15504263
000340 ef f3 f7 3d 76 53 26 be e9 a0 0e be 88 83 22 be
       0.121070735 -0.16242775 -0.1392857 -0.15870488
000350 53 78 30 be 3d 4e 93 3e 2d af e4 bd db a5 b4 3d
       -0.172334 0.2877063 -0.11166225 0.08820697
000360 cd 88 1b be 4c 36 d6 3c 3d 75 37 be 21 3e b7 bc
       -0.15188904 0.026148938 -0.17915817 -0.022368493
000370 cd 3a 74 3e 8d 07 9a 3e e8 67 b0 3d fb e2 9b be
       0.23850556 0.30083886 0.086135685 -0.3044661
000380 1b bb dc 3d 03 82 87 bd 99 a7 17 3e ac a8 5d 3e
       0.10777875 -0.06616595 0.14810027 0.21646374
000390 f9 51 1c 3e c8 34 dc bd 83 00 68 be 37 74 94 bd
       0.15265645 -0.10752255 -0.22656445 -0.07248729
0003a0 e4 58 19 3e 60 98 34 3e b5 39 ec 3d 1d 7a b0 3e
       0.14975315 0.17636251 0.11534444 0.34468165
0003b0 d0 aa ba bc 1b 75 16 be cb c2 96 be e8 0a 16 3e
       -0.022786528 -0.1469311 -0.2944549 0.14652598
0003c0 8d 23 eb 3d b4 02 3c 3c 30 5b f4 3d d5 51 23 be
       0.1148139 0.011475254 0.11931455 -0.15949185
0003d0 db 0e f7 bd b4 bf 99 3d 9f aa 39 3d ff da c6 bd
       -0.1206338 0.075072676 0.045328733 -0.09709739
0003e0 73 02 31 3e 6b 12 8f 3e 51 13 35 be 18 85 c3 bd
       0.1728609 0.2794374 -0.1768315 -0.0954687
0003f0 09 ad 67 3e 19 79 a8 3e 3c c8 12 bd c8 24 6e 3e
       0.22624601 0.3290489 -0.03583549 0.23256218

network.0.bias f4 [64]
000000 30 da f2 3d 83 70 50 3e 09 d5 c9 3d c9 41 75 be
       0.11858022 0.2035542 0.09855086 -0.23950876
000010 54 9f 5b 3e 81 51 42 be 70 8b ce bd 1f 63 6f be
       0.21447498 -0.18976404 -0.10085189 -0.23377655
000020 d0 6c 8c be 1b ce c4 3c 63 b3 8d be 85 fa 29 3e
       -0.27426767 0.02402406 -0.27675924 0.16599472
000030 f4 e7 8b 3d ab c4 83 3e c1 11 f2 3c a3 44 69 bc
       0.06831351 0.25735983 0.029549481 -0.014237556
000040 3a c5 0f 3d 82 7a 12 bd c3 a7 f7 3d 05 98 00 3e
       0.0351002 -0.035761364 0.12092545 0.12557991
000050 5b 66 20 be 70 6d 05 be 51 8d 95 3d e5 74 7b be
       -0.15664046 -0.13030028 0.073023446 -0.2455631
000060 3a 71 11 3d 68 c4 16 be 60 c5 d9 3d 17 ff 68 be
       0.035508372 -0.1472336 0.106333494 -0.22753559
000070 3c 8f 7d be a0 59 5e be d4 78 32 3e cb 99 66 be
       -0.24761671 -0.21713877 0.17428905 -0.22519605
000080 63 da 39 be 88 38 19 be 68 23 15 be dd a1 f5 bd
       -0.18149714 -0.14962971 -0.14564288 -0.119937636
000090 29 0c 8f bd 48 d2 72 3e 5d 0d 61 3e f9 31 47 be
       -0.06984741 0.23713028 0.21977754 -0.19452657
0000a0 ad bf 2c 3e 0d de 84 be bd 00 86 be e4 25 64 be
       0.16869994 -0.2595066 -0.26172438 -0.22280079
0000b0 c8 72 3f bc e5 38 42 3e 9f ec 52 be b3 51 00 3d
       -0.011685081 0.18967016 -0.20598076 0.031327914
0000c0 37 bc 42 be 1c 92 8a 3b 09 14 37 be 2d fc fd 3d
       -0.19017111 0.0042288434 -0.17878737 0.12401614
0000d0 bf c7 8b 3e 0b 07 03 3e 0c 1a 2b 3e 70 3a 35 3e
       0.27300832 0.12795655 0.16709155 0.17698073
0000e0 4d 93 04 3d 1c f0 18 3e 7c a5 8b 3e 4d 7b ce 3c
       0.03236704 0.14935344 0.27274692 0.025205279
0000f0 61 77 e5 3d 6f 47 15 be 1b 13 ff 3d d2 92 22 3e
       0.1120441 -0.14578031 0.12454816 0.1587632

network.1.weight f4 [64]
000000 58 b3 72 3f f1 00 89 3f e9 ad 86 3f 3d 96 82 3f
       0.94804907 1.0703412 1.0521823 1.0202099
000010 07 75 80 3f 44 b4 91 3f 0f f8 88 3f a1 4e 8b 3f
       1.0035714 1.1383138 1.0700701 1.0883371
000020 36 b7 87 3f ef cf 8c 3f 25 7d 82 3f 8b 24 88 3f
       1.0602787 1.1000956 1.0194441 1.0636152
000030 84 34 81 3f 57 41 85 3f d5 26 84 3f 79 5d 87 3f
       1.0094151 1.0410565 1.032435 1.05754
000040 70 2e 8d 3f 55 d7 86 3f 83 84 89 3f cd 21 7d 3f
       1.1029797 1.0534464 1.0743564 0.988797
000050 35 c2 89 3f bf 1e 80 3f 87 fa 81 3f 99 56 84 3f
       1.0762392 1.0009383 1.015458 1.0338928
000060 62 a3 89 3f 00 a2 81 3f 9b 38 8a 3f ec e5 7c 3f
       1.0752985 1.0127563 1.0798525 0.9878833
000070 9e dd 81 3f 5b c0 7f 3f 0d 0f 85 3f af 17 89 3f
       1.0145757 0.99902886 1.0395218 1.0710353
000080 9f b3 84 3f a7 36 84 3f d9 1f 87 3f e4 cb 8a 3f
       1.0367316 1.0329179 1.0556594 1.0843472
000090 a7 4c 87 3f 86 5f 80 3f c1 0a 82 3f 77 9f 84 3f
       1.0570267 1.0029151 1.0159532 1.0361165
0000a0 06 44 8b 3f 2f e3 80 3f 19 3a 84 3f bb 01 85 3f
       1.0880134 1.0069331 1.033023 1.0391153
0000b0 e6 45 91 3f ed d2 86 3f 3b 17 87 3f ac c3 86 3f
       1.1349456 1.053312 1.0553964 1.0528464
0000c0 f9 43 78 3f e8 f0 86 3f a5 eb 77 3f 38 b7 83 3f
       0.9697872 1.0542269 0.9684394 1.0290289
0000d0 bd 13 89 3f f7 46 86 3f bf 39 89 3f 38 3d 79 3f
       1.0709149 1.0490407 1.0720748 0.9735904
0000e0 ef bf 88 3f 9e 5b 8b 3f 69 43 8b 3f 5d fe 8b 3f
       1.0683573 1.0887334 1.0879947 1.0937
0000f0 6b ad 7f 3f e3 0a 87 3f d3 a9 7b 3f 5f 1e 82 3f
       0.9987399 1.0550197 0.98306006 1.0165519

network.1.bias f4 [64]
000000 37 f1 18 bd 98 68 76 3d e4 7a 4c 3d 18 1a fc 3c
       -0.037339415 0.060158342 0.049921885 0.030774161
000010 6d c9 ff ba 65 c0 ec 3d 45 2b 68 3d f0 f5 7f 3d
       -0.0019514986 0.11560134 0.05668189 0.062490404
000020 11 ce 51 3d 17 8c 8a 3d d3 38 dd 3c a5 6c db 3c
       0.05122191 0.06765001 0.027004635 0.026785204
000030 cf a6 a3 3b 4b 17 13 3d 39 da 19 3d 90 78 5c 3d
       0.0049942504 0.035910886 0.03756163 0.053825915
000040 fa bb 91 3d fd 3e 7f 3d 57 3c 82 3d c0 b9 5f 3b
       0.07115932 0.06231593 0.06359165 0.0034137815
000050 1c f0 51 3d 71 58 62 3c bd 61 04 3d 7d c7 08 3d
       0.051254377 0.013815031 0.032319773 0.03339337
000060 2f 6c 9e 3d 90 00 7b 3c 25 2f 13 3d 51 8a 2d bd
       0.07735478 0.015319958 0.035933632 -0.042368237
000070 78 72 55 3d 7f 11 61 bc a0 05 da 3b 53 10 c3 3d
       0.05211112 -0.013737082 0.0066535026 0.09524598
000080 64 bb dc bb f1 ef 75 3d 45 2f 36 3d 40 98 97 3d
       -0.006736206 0.06004328 0.044478673 0.07402086
000090 47 6d 43 3d 22 4c a7 3b 9b 29 38 3c 4d c0 db 3c
       0.047711637 0.0051055113 0.011240388 0.026825095
0000a0 4f 21 9f 3d 9a c7 1e 3d d0 cf 3e 3d 7f f9 33 3b
       0.07770025 0.038764574 0.046584904 0.0027461944
0000b0 83 ff 13 3d 1b 01 77 39 3b ea 03 3d 05 b7 8f 3d
       0.036132347 0.00023556167 0.0322058 0.0701733
0000c0 0d a5 48 bb e0 df 6c 3d 89 f5 9c 3b 11 cc a7 3b
       -0.0030615956 0.05783069 0.0047900123 0.005120762
0000d0 75 a3 4b 3d 94 4d 0f 3d 0d a0 2e 3d 50 13 4a bb
       0.04971643 0.034986094 0.042633105 -0.0030834265
0000e0 89 dd b7 3d b9 17 a6 3d 00 f3 4b 3d ad 1c 9d 3d
       0.08977801 0.081099935 0.04979229 0.07671485
0000f0 d5 00 94 bc ff 8f 95 3d f5 1b ec 3c b1 a1 74 3d
       -0.018066803 0.07302856 0.028821925 0.059724513

network.1.running_mean f4 [64]
000000 48 f4 f8 3d 4b 13 52 3e ff 5c bc 3d 58 a9 75 be
       0.12155968 0.20515172 0.09197425 -0.23990381
000010 65 73 66 3e 78 c9 3d be 6b cb c4 bd ed fc 7b be
       0.22504957 -0.18533885 -0.096091114 -0.24608202
000020 48 cb 90 be 11 67 0a 3d 2c 7f 89 be 50 ff 29 3e
       -0.2828009 0.033789698 -0.26854837 0.166013
000030 30 b6 ba 3d 1d 28 88 3e 19 73 d5 3c f4 09 db bb
       0.09116781 0.26593104 0.02605586 -0.006684536
000040 e8 fc 35 3d 44 f9 41 bd 79 6e 11 3e 1b c2 ff 3d
       0.044430643 -0.04735686 0.14202298 0.124881946
000050 50 ec 22 be c0 b0 0d be 40 26 a9 3d 49 9b 86 be
       -0.15910459 -0.13836956 0.08259249 -0.26290348
000060 20 9e 4b 3d b1 96 09 be a7 92 e1 3d 70 ea 5a be
       0.049711347 -0.1343639 0.110143 -0.21378493
000070 73 71 80 be 0d e6 56 be 88 b1 2e 3e 98 50 70 be
       -0.25086555 -0.20986195 0.1705991 -0.23468244
000080 b8 a1 40 be ac fe 1d be 79 8f 2f be cd e0 e0 bd
       -0.18811691 -0.15429181 -0.17144574 -0.10980377
000090 c9 f7 b0 bd d8 66 68 3e 00 0a 6a 3e 83 28 44 be
       -0.08641011 0.22695482 0.22855377 -0.19156079
0000a0 68 b8 21 3e 35 1a 89 be bd 50 83 be 89 cd 76 be
       0.15793002 -0.26777807 -0.25647536 -0.24101843
0000b0 4c fa 74 bc 28 5a 3a 3e b4 9b 50 be d7 87 c9 3c
       -0.014952254 0.18198454 -0.20371896 0.024600906
0000c0 35 a3 46 be cb 0d 39 3b f9 49 28 be 65 5c 02 3e
       -0.19398196 0.002823698 -0.16434468 0.12730558
0000d0 df 8f 90 3e c1 e8 ec 3d 04 87 41 3e e8 cb 46 3e
       0.28234765 0.11567832 0.1889916 0.19413722
0000e0 51 c0 63 3c b8 2a 16 3e 2d ef 8c 3e db f0 e1 3c
       0.013900832 0.14664733 0.27526227 0.02758067
0000f0 90 f7 de 3d 15 42 04 be 64 70 0e 3e b5 95 2a 3e
       0.108870625 -0.12915833 0.13910061 0.16658671

network.1.running_var f4 [64]
000000 05 78 f0 3e a0 c6 c0 3e 20 e0 91 3e 7d 9d ee 3e
       0.46966568 0.3765154 0.28491306 0.4660453
000010 91 1e 6d 3e 89 e4 ba 3e bb bb 98 3e 83 42 bb 3e
       0.23156191 0.36502483 0.29830727 0.36574182
000020 b3 d0 ee 3e 06 2f a5 3e 10 73 c0 3e 3d 36 d1 3e
       0.466436 0.3226244 0.37587786 0.40861693
000030 43 04 df 3e c5 bb 9e 3e 87 d9 9d 3e d0 58 92 3e
       0.4355794 0.31002632 0.30830023 0.28583384
000040 57 0a bf 3e b9 a8 c0 3e 89 e9 c8 3e 6b 5d ce 3e
       0.37312576 0.37628725 0.39240673 0.40305647
000050 a9 cf 78 3e 88 0a 96 3e 9d df be 3e 85 0e 7a 3e
       0.24297966 0.2930491 0.37279978 0.24419601
000060 74 6e 9e 3e d9 ed bc 3e 35 e3 05 3f 35 1e eb 3e
       0.30943644 0.36900213 0.52299815 0.45921484
000070 fb 36 ab 3e e4 78 9b 3e b5 bc 55 3e d4 12 a7 3e
       0.33440384 0.3036567 0.20872767 0.32631552
000080 4d 97 c4 3e f8 93 6b 3e 49 14 cf 3e 70 80 58 3e
       0.38396683 0.23005664 0.40445164 0.21142745
000090 05 b0 d7 3e 3f 2c 94 3e d1 3a be 3e 65 0a 98 3e
       0.4212648 0.28940007 0.37154248 0.2969543
0000a0 fa 1e 82 3e 4d 87 dc 3e 1c d6 d6 3e a1 9c b6 3e
       0.25414258 0.43071976 0.41960227 0.35666373
0000b0 60 8a 96 3e 2c 46 86 3e d9 14 ab 3e 94 99 a7 3e
       0.29402447 0.26225412 0.33414343 0.32734358
0000c0 f0 05 c2 3e eb 55 4f 3e 19 20 d3 3e a0 61 5d 3e
       0.37895155 0.20247619 0.41235426 0.21619272
0000d0 b8 31 b5 3e d5 46 f2 3e f4 27 c7 3e 2f 99 a3 3e
       0.35389495 0.47319666 0.3889767 0.31952807
0000e0 0c 47 cf 3e e6 2f 8f 3e 6d 88 c8 3e cc 08 8f 3e
       0.40483892 0.2796623 0.39166585 0.279364
0000f0 eb 20 5e 3e 68 e2 ed 3e 91 0c 09 3f 35 86 b3 3e
       0.21692245 0.46461797 0.535348 0.3506333

network.4.weight f4 [32, 64]
000000 50 e4 0c bd 94 a3 98 3d 1f 92 a5 3d af f5 1c 3d
       -0.034397423 0.07453075 0.08084511 0.03832024
000010 81 30 75 bd cd 54 5c 3e 03 69 ee 3d 1f ab d8 3d
       -0.05986071 0.21516724 0.11641123 0.10579514
000020 26 0e a5 bd 9b 39 48 3e 13 4f 7c bd 4b f1 91 3c
       -0.08059339 0.19553225 -0.06159885 0.017815253
000030 f8 67 4c bd 03 91 ad bc f4 f8 56 bc 9f 16 92 3d
       -0.04990384 -0.021187311 -0.0131208785 0.07133221
000040 53 18 04 3e 5e a6 0e 3e cc 9b 18 3d a5 b2 7e bc
       0.12899904 0.13930652 0.037257954 -0.015545522
000050 f8 e8 c7 3c 2d 03 c7 3c df 23 a5 bc fc 7c 48 bb
       0.02440308 0.024293507 -0.020158706 -0.0030592075
000060 25 9b c0 3d 43 fa 6e bd 6a 32 82 3d 71 1c ac bd
       0.094045915 -0.058344137 0.06357272 -0.08403862
000070 a7 18 07 3b 80 c1 09 3d fc 71 b1 bc c5 9c c7 3d
       0.002061406 0.0336318 -0.021660797 0.09746698
000080 a3 4e a5 bd b9 a8 22 3c b9 30 88 bd 2d fc 7c 3d
       -0.080716394 0.009927922 -0.06649918 0.06176393
000090 67 79 07 3e ec c1 d4 3c cb ac 97 3d 31 ff 18 3e
       0.13229905 0.025971375 0.074060045 0.14941098
0000a0 dd be 04 3e 30 b9 51 bc f8 da 57 bd 70 81 3f bd
       0.12963434 -0.0128005 -0.05269906 -0.0467543
0000b0 bf c4 0c 3e 91 3a 18 3e fc ef 9c 3d c4 09 d4 3c
       0.13746928 0.14866091 0.07662961 0.025883563
0000c0 7b aa 9b 3c b0 29 b4 3d 1d b3 02 bd 82 cc a5 3c
       0.01900219 0.08797014 -0.031909097 0.020239118
0000d0 09 bf ae bd b3 11 2c bd a1 19 04 3e e5 fb 90 bd
       -0.08532531 -0.042009067 0.12900402 -0.07079295
0000e0 38 62 17 3e 97 12 09 3d 05 df 53 bd 0d b9 99 3d
       0.14783561 0.033464994 -0.05172636 0.07505999
0000f0 35 97 83 3c bb d6 fb 3d 2f a0 56 bc 9d d7 02 bd
       0.016063312 0.12296816 -0.013099714 -0.031943906
000100 9f b1 18 bd a7 7e e1 bd 73 1c 18 3d a8 6f ac ba
       -0.037278768 -0.11010485 0.037136506 -0.0013155835
000110 39 78 8d bd 45 c7 ff bd 71 fe 5d 3d e5 6f 41 ba
       -0.06907696 -0.124891795 0.054197732 -0.00073790393
000120 40 65 e0 3d 9b cc ee bd bc ae 5c bd 61 0c 3c 3d
       0.10956812 -0.11660119 -0.053877577 0.045910243
000130 c3 c2 da bd d2 56 14 be 67 b6 87 bd ec 7a b7 3d
       -0.10681679 -0.14486244 -0.06626587 0.08958992
000140 f8 95 6a 3d 11 94 ee bc eb cb 7a bd 9d cb 30 bd
       0.057271928 -0.029123338 -0.061229628 -0.04316293
000150 ad cf b4 bd a9 22 a8 3d 63 8b a3 3c 90 c2 70 bd
       -0.088286735 0.08209736 0.019963926 -0.0587793
000160 83 06 6a 3d c1 02 0b 3e 03 05 61 3d 89 59 1a 3e
       0.057135116 0.1357527 0.05493642 0.15073217
000170 20 50 8b 3d 20 e5 6b bd 43 3f f8 bd 05 00 1d be
       0.06802392 -0.057591558 -0.12121441 -0.15332039
000180 73 59 0e 3d 7f cf 53 3d 61 ff 93 bd 3b 72 ce bc
       0.034753274 0.051711556 -0.07226444 -0.025200954
000190 0d d8 d5 bd b0 4f 7c bd cc b1 71 3d 45 dc 2b 3d
       -0.10441599 -0.061599433 0.05900745 0.041958112
0001a0 2c ad 99 bd e2 f9 0f 3e f0 40 e7 3d 88 1a e2 bd
       -0.07503733 0.14060166 0.11291683 -0.11040217
0001b0 67 35 a0 bd 8e 05 02 be 4d 7b c5 bd 4d 11 ff 3c
       -0.07822686 -0.12697431 -0.096426584 0.03113618
0001c0 a1 20 50 3d 95 e0 a8 3c bc ba 57 bd e3 8e ff 3d
       0.050812367 0.020614902 -0.05266832 0.12478425
0001d0 b4 06 f7 3c 36 40 8d 3c 63 62 9f bd cf f1 b8 3d
       0.030154563 0.017242532 -0.07782438 0.09030496
0001e0 ad 0d aa bd 19 17 fb 3c 33 5c 97 bd 1c 13 83 bd
       -0.0830339 0.030650662 -0.073906325 -0.06400129
0001f0 ff 01 05 3e b7 3c 0a bc eb be f9 3d 4d 15 bf 3d
       0.12989043 -0.008437327 0.12194618 0.09330235
000200 33 ee 64 3c 79 9a 25 3d 7f 02 e5 bd 01 bd 00 be
       0.013972807 0.04043052 -0.11182117 -0.125721
000210 5e a8 24 3d 08 a1 93 3c 80 f8 c1 bd 13 af 74 3c
       0.04019963 0.018021122 -0.09471226 0.014934319
000220 f7 38 0b bd 15 03 5f 3d 7b b9 45 3d 81 ef 0f bd
       -0.033989873 0.0544463 0.04827259 -0.035140518
000230 3f d9 f9 3c e5 de e3 bd d5 31 a3 3d 3d 71 c6 bd
       0.030499099 -0.11126498 0.07968489 -0.09689567
000240 78 bc 51 bb 65 3b b6 bd 1d 6f 20 bd 5f a7 e1 bd
       -0.0032003205 -0.08898047 -0.039168466 -0.11018252
000250 60 29 bb bd 7b 4f 8c 3d 60 48 ae 3d c4 3a 37 3d
       -0.09138751 0.06851097 0.08509898 0.044733778
000260 dc ed 5d bd 8f 19 82 bc c9 de a5 bd f3 ae 66 3d
       -0.05418192 -0.015881328 -0.080991335 0.05631919
000270 47 07 9a bd 0b 40 75 3d 1a 09 23 3c 94 f0 87 3d
       -0.07520919 0.05987553 0.0099509 0.066376835
000280 42 a0 01 be 25 8b 09 ba 03 76 30 bd 88 e9 a9 bb
       -0.1265879 -0.00052468694 -0.043081295 -0.00518531
000290 8c 63 cb 3d 31 77 36 bd 14 b1 91 bd cc a9 99 bd
       0.099310964 -0.044547264 -0.07113853 -0.07503089
0002a0 ac 85 e6 3d af a1 6c bd 81 6b 5d 3d 50 9a b6 bc
       0.11255965 -0.05777138 0.0540576 -0.022290379
0002b0 23 56 19 3d ad 0e 06 be 42 96 a3 bd 19 ea ca 3d
       0.037435662 -0.13091536 -0.07987644 0.09907932
0002c0 88 91 9b 3c 81 ca 8d 3d f0 89 01 bd 17 10 66 3c
       0.018990293 0.0692339 -0.031625688 0.014041922
0002d0 55 7c 8f bd eb 2e de bc f7 dd 4b bd 25 b3 af 3c
       -0.07006136 -0.027121982 -0.04977223 0.021447727
0002e0 20 b9 e0 3d 40 a1 68 3c 8f 1c 12 be 01 fc 08 3b
       0.1097281 0.014198601 -0.14268707 0.002090216
0002f0 07 71 81 bc 73 04 b2 3c a8 30 80 bd c8 e2 1e bb
       -0.015800966 0.021730637 -0.062592804 -0.002424406
000300 6b a5 a3 3c 1f 7a 6a 3d b4 e5 00 3d e3 30 fd bc
       0.019976338 0.05724537 0.031469062 -0.0309071
000310 c8 d2 aa bd 3b 35 14 3e bc 51 f4 3d 84 45 b0 bc
       -0.083409846 0.14473431 0.11929652 -0.021517523
000320 5b 36 39 be bd bb cd 3c cf ef fc bd d8 3f cb 3d
       -0.18087141 0.025113935 -0.12350427 0.099242866
000330 ab 03 cf bd 7d 8e 48 3c bf 22 09 bd 9f c3 08 3e
       -0.101081215 0.012241003 -0.033480402 0.13355874
000340 cf 64 d2 3c 8d 21 c2 3d ed 9d f0 3d 97 08 af 3d
       0.025682835 0.094790556 0.11748872 0.0854656
000350 e3 88 73 3d 2f 3d 5f 3d c8 bd 8a 3d 0c fb df bd
       0.059456717 0.05450171 0.06774479 -0.10936555
000360 fb 6a c7 bc 7f 33 c1 3d b7 25 3c 3c 10 2c 7a 3c
       -0.024343004 0.0943365 0.011483601 0.015269294
000370 b5 0c 8f 3d 01 06 54 bd cd c9 60 bc 25 9f f8 3c
       0.069848455 -0.05176354 -0.013719988 0.030349324
000380 63 7b 07 be 7f 6c 2c bc e3 ab a3 bc 78 80 23 3e
       -0.13230662 -0.010523914 -0.019979423 0.15966976
000390 bf cc 04 3e 1b 5a 0f bd 71 1a 95 bd 13 ce 3e 3a
       0.1296873 -0.03499804 -0.07280434 0.0007278632
0003a0 20 ef 3c 3e ec ce 3b 3d 53 39 4f 3d 72 61 07 bd
       0.18450594 0.045851633 0.050591778 -0.033051915
0003b0 3b fd 3c 3e b8 92 46 3e cb 48 e5 3d b3 5d b0 3d
       0.18455975 0.19391906 0.11195525 0.08611622
0003c0 9b f3 8e 3d b5 40 59 bd 24 4d f4 3c 76 b4 8d 3d
       0.06980058 -0.053040225 0.02982194 0.06919186
0003d0 dc a3 ae bd a8 56 fe bd 59 9a 67 3d 2a bf 8c bd
       -0.085273474 -0.12418872 0.05654368 -0.06872399
0003e0 00 c0 66 bd 8f a5 6f 3d 17 a5 87 bd 1b c6 1d 3a
       -0.05633545 0.0585075 -0.06623285 0.0006018595
0003f0 4c 1d 7e bd 29 b1 f0 bc ef 96 38 3d 34 db 38 3d
       -0.06203966 -0.029381352 0.045065816 0.045130923

network.4.bias f4 [32]
000000 54 32 5a bc 69 80 b5 3c 6b 92 d6 bd 5f 9c 1e bd
       -0.013317663 0.022155957 -0.10477146 -0.038723346
000010 81 c2 04 3e 97 a3 82 bc e8 10 14 3e 25 bb 19 be
       0.12964822 -0.015947146 0.14459574 -0.15012796
000020 d0 39 66 bd 87 51 e6 3d 1c 80 b1 bd ce 8d 8b bd
       -0.056207478 0.11246019 -0.08667013 -0.068141565
000030 c0 eb 73 3d 58 c3 b1 3d 9f ba 2b bd 94 24 95 3c
       0.059551 0.08679837 -0.041926023 0.018205918
000040 45 fa 07 bd e8 ca ef bc fc 1a 82 bc 07 7f 5a 3d
       -0.03319766 -0.029271558 -0.015882008 0.0533438
000050 b3 d2 48 3d 37 70 96 bd 79 75 36 3e 65 4f a7 3d
       0.049029063 -0.07345622 0.1781825 0.0816944
000060 92 94 8b bd 64 08 db bd 03 e0 8b bd ed 01 d5 bc
       -0.06815447 -0.1069496 -0.06829836 -0.026001895
000070 b0 33 24 bd 74 2d 94 3d 1d bf f0 3d 63 42 a2 3d
       -0.040088356 0.07235232 0.11755202 0.079228185

network.7.weight f4 [3, 32]
000000 2d ce d5 be 57 e1 a9 bd 8c 1a 41 bd 6f bf bc be
       -0.41758862 -0.08294933 -0.047144458 -0.36864802
000010 bc 06 c2 be b7 dc 2f be 7d 9f af be 7b ab 45 3c
       -0.37895763 -0.1717404 -0.34301367 0.01206481
000020 96 71 1a be d0 bc 89 3d 8c 92 54 bc f9 88 54 be
       -0.15082392 0.06725466 -0.012974393 -0.20755376
000030 d8 5c f3 bd 9f 86 a3 be 5c ff 9e be 83 28 84 be
       -0.11882943 -0.31938645 -0.310542 -0.25812158
000040 1b f9 4c bc 78 00 d0 be 4d da c9 be dc 61 d5 be
       -0.012510563 -0.40625358 -0.39424363 -0.41676223
000050 cb 8f 98 be 1b 57 50 3c 77 16 87 be 65 49 d1 be
       -0.29797205 0.01271608 -0.26384327 -0.40876308
000060 09 d5 20 bd 48 f5 07 3d 2f 2f bb bd e0 22 19 3e
       -0.039265666 0.033192903 -0.09139859 0.1495471
000070 6c a9 74 be 20 8b 98 bd c9 d1 a5 bc a4 8c e4 be
       -0.23892754 -0.07448411 -0.020241635 -0.4463855
000080 fd 91 d5 bd 80 4c e2 3d c8 ed e3 bd 9b e9 1f be
       -0.10428236 0.110497475 -0.111293375 -0.15616457
000090 75 38 81 3d af 00 e8 bd 8f bf e8 3d 4a 2b 29 be
       0.063095964 -0.113282554 0.11364662 -0.1652042
0000a0 95 10 29 be c0 cf 10 3e e9 7c 85 3b 85 1b 32 be
       -0.16510232 0.1414175 0.0040737283 -0.1739331
0000b0 e0 da f8 3d 26 3f 8f 3d 15 49 12 be 8b f2 a4 3c
       0.12151122 0.069944665 -0.14285691 0.020135185
0000c0 f9 20 12 3e d8 38 14 bd e3 12 26 be b8 c2 db bd
       0.1427039 -0.036187023 -0.16218142 -0.10730499
0000d0 7b db aa 3c 5d 56 38 3e b5 51 db 3d 6f f4 0d bd
       0.02085661 0.18001695 0.10708944 -0.03465694
0000e0 53 09 18 3e 99 0e 29 be fc 6a 1a 3e a7 33 4f be
       0.14847307 -0.16509475 0.15079874 -0.20234548
0000f0 f4 20 2a bd 30 9c e5 3d 65 ea 2d 3e 41 e6 f4 bd
       -0.041535333 0.11211431 0.16983946 -0.1195798
000100 2d ac 5d 3e eb c2 00 be 39 e2 62 bd 10 4f 68 3e
       0.21647711 -0.12574355 -0.055391524 0.2268641
000110 a7 16 69 3e 11 d0 10 3e 7c c3 80 3e 87 bc 07 3d
       0.22762547 0.14141871 0.25149143 0.033138778
000120 50 54 e9 3c 64 74 71 be 4d e0 e6 bd 13 a6 f4 3d
       0.028482586 -0.23579556 -0.11273251 0.11945739
000130 99 96 ee bd 7a e9 9a 3d 00 91 f8 3d ec 73 21 3e
       -0.11649818 0.07564063 0.121370316 0.15766877
000140 ef ae 0d be bc 24 33 3e f9 c2 64 3e 07 ea 32 3e
       -0.13836263 0.17494482 0.22340001 0.17472087
000150 97 2b 5d 3e a5 40 67 3d ea 83 0c 3d 0d 22 4b 3d
       0.2159866 0.056458134 0.03430549 0.04959302
000160 82 d6 16 be b3 e5 08 3e eb 61 7c be 82 7f 9d be
       -0.14730266 0.13368873 -0.24646728 -0.30761343
000170 3e 6f 81 3e c5 08 4f be c4 77 44 be 00 7c 91 b9
       0.25280184 -0.20218189 -0.19186312 -0.00027748942

network.7.bias f4 [3]
000000 c5 cf 21 bd fa fe 0d 3e c3 cb 3a be
       -0.039504785 0.13866797 -0.18241791
