models/lstm_model.pth (torch, 218549 bytes, 16 tensors)

lstm.weight_ih_l0 f4 [256, 2]
000000 e2 6f b7 3d df 91 1c 3d b3 da 1e bc 92 5a 16 bb
       0.08956887 0.03822505 -0.009695697 -0.0022942168
000010 3c 67 d4 bd 81 1c c2 3d 32 87 ae bd c1 56 42 3d
       -0.10371253 0.09478093 -0.0852188 0.047446016
000020 a6 02 7a 3d 55 8f cb 3d f5 f9 af 3d ee 93 d6 3d
       0.061037682 0.09939448 0.085925974 0.10477434
000030 ec 18 5c 3d 03 73 ac bd 9b 23 e6 3d 77 50 50 bd
       0.053734705 -0.08420374 0.1123726 -0.050857987
000040 ca 6e 32 3d b2 ba 41 3b 81 9f 8b 3c 81 6d b3 bd
       0.043562688 0.0029560742 0.01704383 -0.087611206
000050 a1 bf fd bc 7c ef 54 3a 86 97 95 bd 93 ee f6 3d
       -0.030975165 0.0008122844 -0.073042914 0.12057223
000060 1b 39 9e bc 08 cd ba bc 36 2e cf 3d 90 80 7b 3d
       -0.01931434 -0.022802845 0.10116236 0.061401904
000070 82 d9 40 bd 11 3f d1 3d 9f 7c 8f bb 9b 7c 23 3d
       -0.04708243 0.10217107 -0.0043788697 0.039913755
000080 29 ee a2 bd bd 04 91 3c 1b 07 af 3d 2f 41 ce 3d
       -0.07955582 0.017702455 0.08546277 0.100710265
000090 bc a6 c8 bc e0 eb 85 3c d3 5c e9 bd b2 3f a9 3d
       -0.024493568 0.016347826 -0.11394658 0.08264102
0000a0 aa e6 96 3d 09 20 85 bc 38 45 06 3e c2 11 68 bc
       0.073682144 -0.016250627 0.13112342 -0.01416439
0000b0 f0 f6 83 3c b4 f9 44 bd 42 ab e7 3d 42 f8 f1 3d
       0.01610896 -0.048089698 0.11311962 0.118149295
0000c0 ca 14 34 3d a7 ce ce bc c3 35 db bd c8 0b 56 3d
       0.04396514 -0.025245024 -0.107036136 0.05225733
0000d0 5c ab e0 3c bb 97 ac 3d e5 84 f9 bd 24 ec bf 3d
       0.02742546 0.08427378 -0.12183551 0.09371212
0000e0 71 24 8f bd b1 22 f5 3d d7 60 b1 bc 84 89 5f 3d
       -0.069893725 0.119695075 -0.021652622 0.054574504
0000f0 9a 33 e9 bd fc ff 22 bc 6c 39 81 bd a3 2e 34 3d
       -0.11386795 -0.009948727 -0.063097805 0.04398979
000100 2c 84 e9 bd a2 fb d1 3d a6 51 18 bd 96 3b 78 3d
       -0.11402163 0.10253073 -0.03718724 0.0606037
000110 a0 aa 70 bc f6 42 c4 3d 97 12 aa bd 7e 25 b4 3d
       -0.014689118 0.09583084 -0.08304327 0.087962136
000120 60 5f 44 bd 70 68 e6 bd 71 68 8b bd 25 b2 ac bd
       -0.04794252 -0.112503886 -0.0680703 -0.08432416
000130 ad 61 0a bc 30 12 bf bd fd 9a 8a bd 83 4e 14 3d
       -0.008446139 -0.09329641 -0.06767843 0.036207687
000140 22 39 86 3d 52 85 62 bd f8 91 42 3a 23 6e 3d bc
       0.06553866 -0.055302925 0.0007422264 -0.011561903
000150 94 4d d6 bd 82 87 9c 3d c8 10 b8 bd 39 3f a7 3d
       -0.104640156 0.076430336 -0.08987576 0.08166356
000160 34 ab 68 bc 06 9f e1 3c 3f d1 ec bc 8b 3a 0f bd
       -0.014200974 0.027541649 -0.02890837 -0.03496794
000170 c7 cf c3 bd 3e c3 f2 3d c5 1d db 3d 08 d0 b8 bc
       -0.09561115 0.11853646 0.106990375 -0.022560135
000180 14 c7 64 bd e7 5f d7 3d 7b 89 5b 3d 16 0c a7 bd
       -0.05585392 0.10516339 0.05359791 -0.08156602
000190 5a 77 7c bd ee 83 13 bd 01 49 37 bc 18 92 b8 bc
       -0.06163726 -0.03601449 -0.011186839 -0.0225306
0001a0 d1 b6 38 bd b4 8f dd bd 81 76 be 3d f2 0f e5 3d
       -0.045096222 -0.10818425 0.092999466 0.11184682
0001b0 1d 66 a1 3c a9 28 8e bc 7b 94 c7 bd 05 0d 10 3d
       0.019702012 -0.017353373 -0.09745117 0.035168666
0001c0 34 49 ea 3d 69 df fb 3c d7 fe d5 3d 8f 7e 3d bc
       0.11439744 0.030746179 0.104489975 -0.011565818
0001d0 65 37 03 bd d2 e2 ec 3d 64 62 ee bb 48 9a 61 bd
       -0.03203525 0.115667 -0.0072749127 -0.055078775
0001e0 0b 8e ff 3c c3 cc 7c 3d 68 6f 22 bd a3 c7 49 bb
       0.031195661 0.061718713 -0.039657027 -0.0030789159
0001f0 87 58 e0 bd 40 6d 3e 3d 71 76 33 3d 23 29 71 bd
       -0.10954385 0.046490908 0.043814126 -0.05887712
000200 81 4f d5 bc f7 ff 3b bb f6 b0 00 3d 12 21 69 bd
       -0.026038887 -0.0028686502 0.031418763 -0.056916304
000210 ec 70 87 bd 02 82 be 3d 5d 0b cc bd f2 b3 c7 3d
       -0.06613335 0.09302141 -0.09963105 0.09751119
000220 0e 13 de 3d a6 01 7c 3d 4d 4e ed bd 46 8e fe bd
       0.10843478 0.06152501 -0.115872 -0.1242948
000230 86 ca bf 3d 69 1f 89 bd 9b 59 5a 3d 14 00 d5 bd
       0.093648 -0.06695444 0.05330811 -0.104004055
000240 16 9e f6 3d e3 6a 7b bc b8 e5 4c 3d 3d c6 cc bd
       0.12041871 -0.015345308 0.050023764 -0.099987485
000250 ec 36 03 bd 87 09 27 bd 59 10 a3 bb ac 1f 46 3d
       -0.0320348 -0.04078057 -0.004976314 0.04837005
000260 71 9f 03 be bf c1 38 3d d1 51 49 bd 9c 75 87 bd
       -0.12853791 0.045106646 -0.04915029 -0.06614229
000270 e9 81 e1 3d 74 6c fd bd f4 2b 9b 3d 60 9e a3 bd
       0.110111065 -0.123742014 0.07576743 -0.07989192
000280 20 60 83 3d f2 50 e0 3d c5 8b c6 3d 53 a5 ad 3d
       0.06414819 0.10952939 0.09694628 0.08478799
000290 69 b8 5e 3d b9 49 d0 3d 69 b9 34 3d 9e 88 40 bd
       0.054375086 0.101703115 0.044122133 -0.04700529
0002a0 ad c7 02 3d db aa cd 3d 99 aa ad 3d 6f 26 a6 3d
       0.031928707 0.10042354 0.084798045 0.081127994
0002b0 ec c0 3b bd 43 ab 12 3e 3f 40 ec 3d 79 25 c0 3c
       -0.04583828 0.14323144 0.115356915 0.023455368
0002c0 b4 ba 91 bd 48 11 12 3d 4f 6a a5 bd 98 42 f5 bc
       -0.07115689 0.035661012 -0.080769174 -0.029938981
0002d0 89 aa f0 bd 9a 7b a1 bc c0 be 23 bb 4b 13 35 bd
       -0.11751277 -0.019712258 -0.0024985522 -0.044207852
0002e0 29 86 23 bd b4 41 62 bc 3d d2 ca bb ab e4 91 3c
       -0.039922867 -0.01380961 -0.006189613 0.017809233
0002f0 06 48 c2 3d d3 d6 83 3c f2 8a a7 3d 59 39 88 bd
       0.09486394 0.016093647 0.081807986 -0.06651563
000300 b2 4e ab bd cb f5 c9 bd 4b 50 d5 3d 2b 1d 8b bd
       -0.08364619 -0.098613344 0.10415705 -0.06792673
000310 70 d3 88 3c 92 99 71 3d 24 58 46 3c bf d1 09 3e
       0.016702384 0.058984347 0.012105975 0.13458918
000320 25 bb 6f bd f0 ef 8c 3c c5 71 33 bc 04 c0 51 3a
       -0.058528084 0.017204255 -0.010952418 0.000800133
000330 51 05 04 bd 76 11 b5 3b f9 32 b9 bc e6 c8 a9 3c
       -0.032231633 0.005525763 -0.022607313 0.020725679
000340 5f 24 b8 bc a6 47 00 3e cd e2 d6 3d ce f8 0f bd
       -0.02247828 0.12527332 0.104924776 -0.035149388
000350 ac b2 4f 3c 48 a7 8f bd 6b 65 8a bd 40 56 b6 3d
       0.012676876 -0.07014328 -0.06757625 0.0890317
000360 de b9 c1 3d 2b 8f 98 bd 98 d6 d1 3d 58 e3 96 3d
       0.094592795 -0.07449182 0.10246009 0.07367581
000370 ec c5 81 3d b2 23 25 bd 5f 2b a7 3c 7d ca f4 3d
       0.06336579 -0.040317245 0.020406423 0.11952684
000380 9b 74 8a 3b f0 03 8e 3b 7f 65 19 bd 2c da fb 3d
       0.0042253262 0.0043339655 -0.03745031 0.12297472
000390 0f 59 fa 3d 1d c7 e8 bd 58 f7 06 3d 96 94 8c 3d
       0.12224018 -0.11366103 0.03295073 0.06864278
0003a0 08 00 e2 3c 5c 39 a0 3c ee 8b 83 bd b9 64 bd bd
       0.027587906 0.019558601 -0.06423174 -0.09247727
0003b0 8b 45 0a be 9d 7c 77 3d 82 77 af 3d 53 f3 00 3e
       -0.13503091 0.060421575 0.08567716 0.12592821
0003c0 66 f9 cb 3d 34 ae e2 bd 2c 32 4f bd 64 52 57 3d
       0.09959678 -0.11068383 -0.050584957 0.05256881
0003d0 1d 37 b0 3d 38 e3 51 bd 99 74 22 bc e1 c9 86 3a
       0.08604262 -0.051242083 -0.009915494 0.0010283553
0003e0 ad 46 89 bc ff 4c b1 bc fd 18 12 3d 65 be 1d 3d
       -0.016757334 -0.02164316 0.035668362 0.038511652
0003f0 96 d3 e4 3d d3 3b 01 3d a8 d8 db bd 35 59 65 3c
       0.11173169 0.031551193 -0.10734683 0.013998319

lstm.weight_hh_l0 f4 [256, 64]
000000 3b f4 d9 bd 26 e8 b7 3d 99 a1 ec 3d d4 b6 82 bd
       -0.106422864 0.08979826 0.1155426 -0.06382528
000010 6f d4 a8 bd 29 3c 25 3d 57 9a 22 3c 73 7a f3 bd
       -0.082436435 0.040340576 0.009924493 -0.1188859
000020 1b ea e0 bd 4a c7 86 3d 31 b0 fc 3d 2c 40 4d bd
       -0.10982152 0.0658098 0.12338293 -0.050110027
000030 48 ab 5f 3c 92 50 ef bc d8 60 17 3d e0 06 0b 3d
       0.0136516765 -0.029213224 0.03695759 0.033942103
000040 17 0f ce 3d ee e2 9e bc c6 fc 21 3d 99 b9 15 bd
       0.10061472 -0.019395318 0.039547704 -0.036553953
000050 e0 eb c5 bc 04 5c b6 3d 47 5a d5 3c 0a 03 b2 bd
       -0.024160326 0.08904269 0.026044024 -0.08691986
000060 22 2f 25 3c f4 c1 29 bd 05 53 67 bd 8a 47 a5 bc
       0.010082038 -0.041444734 -0.056475658 -0.020175714
000070 9f f7 5d bd f7 6a 1f 3d 68 f8 97 3d 89 19 b8 bd
       -0.054191228 0.03892037 0.074204266 -0.089892454
000080 54 50 12 bc 60 58 2c 3d 53 5a db bd 13 6b 22 bd
       -0.0089302845 0.04207647 -0.10710587 -0.039652895
000090 76 d1 b2 3d f8 6c f8 bc 9f d3 e6 bd f2 87 45 3d
       0.08731358 -0.030325398 -0.11270832 0.04822535
0000a0 d2 38 7e bd 55 26 8a bd cc 52 37 3d 60 66 2f 3d
       -0.062065907 -0.067455925 0.044756696 0.04282224
0000b0 39 6d 80 bd 79 e4 97 bd eb ac 19 bd 75 e6 f8 3d
       -0.062708326 -0.074166246 -0.037518423 0.12153331
0000c0 d4 9d a9 bc 35 f7 57 3d ac 1d 56 bd d9 1a eb 3c
       -0.020705141 0.05272599 -0.05227439 0.028699325
0000d0 e5 87 34 bd 88 f0 12 3d dd ed ae bc 60 88 c2 3d
       -0.04407491 0.03587392 -0.021353656 0.09498668
0000e0 dc 5a ff bd 85 04 b6 bd 07 bf 68 3c 2d 1a 2c bc
       -0.12468502 -0.08887581 0.014205701 -0.010504288
0000f0 22 38 91 3d 6c da a2 bd e1 2f 0c bd e7 f0 ab ba
       0.070907846 -0.07951817 -0.03422535 -0.0013118059
000100 2b 53 b5 bc 02 7d b2 3d e2 26 d4 bd 23 0e 67 3d
       -0.022134384 0.087152496 -0.10358979 0.056409966
000110 bb 4e 8f 3d 8f 7b 9b bd 69 68 c3 3c 64 5c d1 3d
       0.069974385 -0.07591926 0.023853498 0.102227
000120 40 70 bb 3d 49 2d 4d bd be b2 27 3d de 5b 8d 3d
       0.09152269 -0.050092015 0.040941946 0.06902288
000130 ec 4e 34 3d 4c 70 01 3d e7 59 81 bd 44 47 b1 3d
       0.04402058 0.031601235 -0.06315976 0.08656171
000140 f0 10 83 3d 29 36 d4 3d ee 2c 27 bb 9f 82 87 3d
       0.06399715 0.10361893 -0.0025508958 0.06616711
000150 d2 42 36 3d 77 2b 9e bc df 6a 4d bd 7b 87 f9 3b
       0.04449732 -0.019307835 -0.05015075 0.0076150275
000160 8e 8d 25 bc 1a ed 5f bd b9 03 5b 3d 0c 67 91 bd
       -0.01010455 -0.054669477 0.053470347 -0.07099733
000170 f6 7e 59 bd 17 32 22 3d 9a f2 ed bd 23 37 8c bd
       -0.053099595 0.03959855 -0.11618538 -0.06846454
000180 4e 95 ad bd 1a 23 ca bd 4c 32 e3 bd 34 fd 51 3d
       -0.08475743 -0.09869976 -0.11093578 0.051266864
000190 33 3e 67 3b 92 86 0e bd 68 29 cd bd 69 dc 3c 3d
       0.0035284876 -0.034796305 -0.10017663 0.046108637
0001a0 60 ff cb 3d ae 82 9d 3d 85 15 c8 3c f4 83 65 bd
       0.09960818 0.07690941 0.024424324 -0.056034043
0001b0 8d d8 cb bc 4d d9 39 bd e4 50 b6 bd 73 8f c8 3d
       -0.024883533 -0.04537325 -0.089021474 0.09792986
0001c0 73 92 b4 bd 1b b1 13 3e 0b 46 5e 3d be 3d 8e bd
       -0.088169955 0.14423029 0.054266017 -0.0694537
0001d0 5e 0a e7 bd ae 5f ca bd 55 1c 38 bd 10 e4 c8 bd
       -0.11281274 -0.09881531 -0.044948895 -0.098091245
0001e0 78 56 88 3d 25 1d e0 3d 5f 13 73 3d 43 18 94 bd
       0.066571176 0.10943059 0.059344646 -0.0723119
0001f0 e9 45 54 3d 1c 69 fa bd e4 75 23 3d 0f 15 fd bc
       0.051824484 -0.12227079 0.03990735 -0.03089383
000200 c8 5b 87 3d 6a 1c a1 3c 5b b7 50 3d f3 04 c3 3d
       0.06609303 0.01966687 0.05095611 0.09522428
000210 39 36 d7 3d 7d ad e2 bd e6 a5 6c bd 86 e2 95 bd
       0.10508389 -0.110682465 -0.0577754 -0.073185965
000220 d2 18 a0 bd 11 b2 e6 bd be da 46 3d 0d e0 bd bd
       -0.07817234 -0.11264432 0.048548453 -0.0927125
000230 f1 f5 5c 3d 7c ce 9a 3b 2d 49 9a 3d 29 b7 3b 3d
       0.053945486 0.004724322 0.075334884 0.045828972
000240 94 dc 10 be 73 80 73 3d 8f ea 58 3d 3c b4 a1 3d
       -0.14146644 0.05944867 0.052958068 0.07895705
000250 43 bc 02 3e bd e5 2a 3c 5b f5 45 bb e5 69 cb 3d
       0.12767129 0.01043075 -0.0030206058 0.09932307
000260 10 45 c7 bd a2 0b c5 3d a7 c1 f5 3d d2 67 ae 3d
       -0.097299695 0.096213594 0.11999827 0.08515896
000270 02 53 d0 3d 1f 78 ac bd 0a d8 58 bd 4e 3d 6d 3b
       0.101720825 -0.08421349 -0.052940406 0.003619987
000280 22 8a 9d 3c f1 14 29 3c ca 5c a1 3d d9 e9 1c 3e
       0.019230906 0.010319934 0.07879026 0.15323581
000290 d2 64 f7 3d 4c bf ca bc a7 8c 11 bd d5 01 78 bb
       0.12079777 -0.02474942 -0.035534527 -0.003784289
0002a0 8b a1 c9 bd 2d 8d 9f bd 3e cd 96 bd 24 2b c8 bd
       -0.09845265 -0.07790599 -0.073633656 -0.097738534
0002b0 ab 20 43 3d 72 bd e5 bd b8 86 f4 3d 8f a5 f7 bc
       0.047638576 -0.112177745 0.11939758 -0.030230312
0002c0 21 a2 e4 3c 8f 45 19 3e 75 0f b0 3c 90 ca 9e bb
       0.02790934 0.14967941 0.021491745 -0.0048459247
0002d0 68 59 cd 3d 51 12 82 bd 8e 93 19 bd 44 a5 df bd
       0.100268185 -0.0635115 -0.037494235 -0.10920194
0002e0 d0 38 e5 3d bf 2b ac bd 7e 3c b8 bd ea 6f 82 3d
       0.11192477 -0.084067814 -0.08995913 0.06369002
0002f0 14 11 1b bd 04 41 aa bc ca d6 c8 3d 5a ba 19 bd
       -0.037858084 -0.020782955 0.09806593 -0.037531234
000300 45 65 d5 bd e1 9f 31 3d dc 36 9d b8 34 06 d1 bc
       -0.10419706 0.043365363 -7.496562e-05 -0.025515653
000310 12 43 62 3d fd de 7e 3c 38 0e 99 bc 04 26 94 3d
       0.055239744 0.015556094 -0.018683538 0.072338134
000320 4c 60 83 bd 0f ee 05 3e d2 de ed bd 3e 78 3e 3d
       -0.064148515 0.13079093 -0.11614765 0.04650139
000330 6c 53 ea bd 15 e4 e5 3c 91 d3 6b bd 6c 18 0b 3e
       -0.11441693 0.02806286 -0.057574812 0.13583535
000340 be 77 60 bc 97 18 df 3d 80 11 b6 bd 7e 20 03 3b
       -0.013700424 0.10893362 -0.088900566 0.002000838
000350 1c b5 03 be fc d3 85 3d e3 e7 ca 3c f7 d9 83 3d
       -0.12862056 0.065345734 0.024768775 0.06438058
000360 75 dd 05 3d 0c 70 50 bd e6 55 e4 bd fb a8 de bd
       0.0326819 -0.050888106 -0.11149196 -0.10872074
000370 7f 47 f0 3d 9c 95 34 3d c6 87 f7 3b f5 ff ab bc
       0.11732387 0.04408799 0.0075540273 -0.020996073
000380 ca 49 47 3d a4 da 0c bd 2a 9c c2 bd 76 09 24 3d
       0.048654355 -0.0343882 -0.09502442 0.040048085
000390 19 b1 8e bc 49 66 d6 bd 1f 4b c9 3d c1 a8 9c 3d
       -0.017418431 -0.10468728 0.09828781 0.07649375
0003a0 02 8a e7 3d 59 87 07 3d 84 8b 1d bd ad 63 06 3d
       0.1130562 0.033088062 -0.03846313 0.032809902
0003b0 1e e2 02 be e1 e3 fb bc 62 4e a2 bd 5e 0b a2 3d
       -0.1278157 -0.03074831 -0.079251066 0.07912324
0003c0 d7 c1 05 bd 61 4f 9a 3d 1c 3a af 3d 21 72 84 3d
       -0.032655563 0.075346716 0.08556005 0.06467081
0003d0 1a 0d bb bc 08 60 89 bd b7 f8 5d bd de 51 2e 3d
       -0.022833396 -0.0670777 -0.05419227 0.042558543
0003e0 e5 c0 45 bc 9f 61 db 3b 31 dd f1 bd 8d e8 e1 3d
       -0.012069915 0.006694987 -0.11809767 0.11030684
0003f0 73 03 85 3d b2 06 dd 3d 85 32 82 3d d2 36 97 3d
       0.064947985 0.10792293 0.06357292 0.07383503

lstm.bias_ih_l0 f4 [256]
000000 36 ce ba bd 8f 67 70 3a a3 79 c9 bd f7 37 00 3d
       -0.09121363 0.0009170705 -0.098376535 0.031303372
000010 0a 90 1f bd 49 50 a4 bd 6b 29 58 bd b7 9f c7 3d
       -0.038955726 -0.08023126 -0.052773874 0.0974726
000020 94 e8 ef 3d bd b3 49 bd 82 1d c0 3d e3 d2 9d 3d
       0.11714283 -0.049243677 0.09380628 0.07706239
000030 bb e8 86 bd 72 a7 e0 3d 7f f8 dd 3c 92 28 c1 bc
       -0.065873586 0.10969438 0.027096031 -0.023578916
000040 7d 93 89 bc 81 38 a9 bd fb e6 86 bc e4 ed 68 3c
       -0.01679396 -0.082627304 -0.016467562 0.014216874
000050 ae 22 ec 3d 84 f0 90 3d 64 a9 23 3d 3a cc a2 3d
       0.11530052 0.07077125 0.039956465 0.079491094
000060 ac eb 7e bc ef 0d 20 bd 8e 46 dd 3d 1f ad de bd
       -0.015559118 -0.039075788 0.10804473 -0.10872864
000070 a3 77 f6 3d f1 71 ca 3c 55 73 97 3d 55 ba 0a bc
       0.12034538 0.024712535 0.07395045 -0.008467277
000080 23 0c 6d 3d 90 17 55 bd 08 a3 5e 3c d8 f4 01 bd
       0.057872903 -0.052024424 0.013588674 -0.03172764
000090 88 6d fc bd 86 e9 37 bc dc eb 14 bd ce 6c 94 bc
       -0.12325579 -0.01122511 -0.036357746 -0.018118288
0000a0 3a 2b 59 3d f2 2d bd bc 14 95 04 be 8b 03 10 bd
       0.05301974 -0.023093197 -0.12947494 -0.03515963
0000b0 71 66 cd bd d7 8d 0a bd 65 eb cf 3d 96 dd e8 3d
       -0.10029305 -0.033826675 0.1015232 0.11370389
0000c0 5e 35 09 bd fe f8 ba bc 20 ed d7 3c 90 26 2c 3d
       -0.03349816 -0.022823807 0.026358187 0.042028964
0000d0 56 ee ed bd 90 9f ae bc 15 6a c9 3d 5a 05 e3 3b
       -0.116177246 -0.02131632 0.09834687 0.006928128
0000e0 e7 3b 5d 3d e3 15 8d bc 65 3e 74 3c 59 a7 ca bd
       0.054012205 -0.01722235 0.014907454 -0.098952
0000f0 64 1e ef bc 91 2b c6 3d ae e2 1d 3d 5e 50 a0 bd
       -0.029189296 0.096762784 0.038546257 -0.07827829
000100 f5 13 cc bd c3 24 dd 3d f4 15 4d bd 78 85 3c bd
       -0.09964744 0.10798027 -0.050069764 -0.046025723
000110 64 cd 7b 3d 8d 2e 7c bd 72 29 01 be 2b 31 94 bd
       0.061475173 -0.06156783 -0.12613466 -0.072359405
000120 65 06 6f bd 47 84 4e bd 93 89 34 3d c3 92 ea 3d
       -0.058355708 -0.05041912 0.044076513 0.11453774
000130 f9 2e e4 3b 26 13 06 3d 32 97 b2 bd 5c 0e e4 bd
       0.0069636074 0.032733105 -0.087202445 -0.11135551
000140 f9 35 36 bd 07 4a 22 bd 0c 3c 9b bc 85 cf 12 3d
       -0.044485066 -0.03962138 -0.018949531 0.035842437
000150 bc 96 e9 3c dd 29 d7 bd 0f a1 27 3c b9 a0 32 bc
       0.028514259 -0.10506032 0.01023127 -0.010902577
000160 b7 c0 db 3d 0c 96 98 3c d3 05 c3 bd 3b f4 18 3e
       0.10730117 0.018626235 -0.09522595 0.14936917
000170 9a e2 03 be a5 11 c8 3d 0e 0e 95 bd 86 ad 60 3d
       -0.1287941 0.097689904 -0.07278071 0.054852985
000180 f3 bb 6b 3d 79 a5 94 bc f5 2b f4 3d e0 cb 57 bd
       0.05755229 -0.01814531 0.11922447 -0.052684665
000190 de 6f d1 bd d6 48 fe 3d fc 1d b2 bd c4 08 e0 3d
       -0.10226415 0.12416236 -0.08697125 0.10939172
0001a0 3a 07 15 bd 12 b4 4b 3d 21 aa 05 be 11 db a7 bd
       -0.036383845 0.049732275 -0.1305318 -0.081960805
0001b0 6c 38 46 bd 35 00 ce bd b5 1c 54 3d 80 df c9 3d
       -0.04839365 -0.10058633 0.05178519 0.09857082
0001c0 5d bb e0 b9 df 89 b8 3b 06 3f 30 bd f1 f8 8f 3d
       -0.00042864206 0.00563167 -0.043028854 0.07029904
0001d0 57 c5 9f bd 4c ca de bc 1d 30 33 bd 3e c6 e5 bc
       -0.078013115 -0.027196072 -0.043747056 -0.02804863
0001e0 da 59 eb bd e6 d1 ae bc a8 64 91 3c 79 cc 5f 3d
       -0.11491747 -0.021340322 0.017748192 0.05463836
0001f0 e8 8b ca bd 25 fa e2 3d 3e 45 95 bb 9f 9f 73 3b
       -0.09889966 0.110828675 -0.0045553735 0.0037174
000200 4c d0 b3 3d 6d ae 58 3c 8e 8b 9e 3d 3c eb d9 3d
       0.08779964 0.01322518 0.07741462 0.106405705
000210 8f 83 f7 3c 04 6b ca 3d 89 bd ff 3d 9c bc c5 3c
       0.0302141 0.09883693 0.12487323 0.024137788
000220 1c 5b 9c bd 34 aa 30 bc 30 59 bf bd c9 07 67 bd
       -0.07634565 -0.010782767 -0.09343183 -0.05640391
000230 69 8a e1 bd 70 6c e0 3d 0c e5 67 bd 8c 15 f0 3d
       -0.11012728 0.10958183 -0.05661492 0.1172286
000240 b6 5e 9a 3d 4a 87 16 bd 12 0f 8e 3d 22 76 ce 3d
       0.07537596 -0.036750115 0.06936468 0.10081126
000250 30 a2 d0 bc fc 00 20 3d 3a ac 44 bd be 2f fd bd
       -0.025467962 0.03906344 -0.04801581 -0.12362622
000260 bc 0c 8a 3d a1 91 96 bd b7 51 23 3d cd 33 70 bd
       0.0674071 -0.07351995 0.03987285 -0.05864315
000270 ba 50 be 3d 9d 64 75 bd 84 7f d9 bd da 9d a0 bd
       0.09292741 -0.059910405 -0.10620025 -0.07842608
000280 84 71 da 3c c2 4c b0 bd 43 c7 99 3d e2 1e bf bd
       0.026665457 -0.086083904 0.07508709 -0.09332062
000290 1c 8f 3f bd 38 da e8 bd 8a 26 4a bc d0 6d 5b 3d
       -0.04676734 -0.11369747 -0.01233829 0.053571522
0002a0 ed 99 99 bb f4 9d f7 bc e0 e7 d1 3d e7 e4 ce bc
       -0.004687539 -0.030226685 0.10249305 -0.025255634
0002b0 40 d4 8f bd 52 c2 b0 3d 5c 52 17 3d b9 0e 4b bd
       -0.07022905 0.08630814 0.03694378 -0.049574587
0002c0 a2 bd 71 3c 2e ae d6 bd c0 b8 cd 3d 4d 61 8c 3d
       0.014754685 -0.10482441 0.10045004 0.06854496
0002d0 09 85 97 bb de a7 ff bd 00 4a 35 bd 20 a3 4e bc
       -0.0046240133 -0.1248319 -0.044260025 -0.012612134
0002e0 6c c1 4b bd db 61 c2 bd 0a 29 dc 3d 00 a4 70 bd
       -0.04974501 -0.09491321 0.10750015 -0.058750153
0002f0 bb 5e 92 3c f0 42 9e bc 1c 22 9c 3c f5 99 cd 3d
       0.017867437 -0.019319028 0.019059233 0.100391306
000300 8b f9 e9 3b cc 38 d7 3c 54 26 1b 3d 2c 1b ba bd
       0.0071403435 0.0262722 0.03787835 -0.09087214
000310 bd eb 6c 3c 1b 4a 87 3d f4 e9 55 3d f2 6d 9e bc
       0.014460501 0.06605931 0.05222507 -0.019339535
000320 83 54 26 bc 36 0b 09 be bb f8 f2 bd fe 42 a9 bc
       -0.010151985 -0.13383183 -0.11863848 -0.020661827
000330 c0 7a e1 bd 40 8a 1a 3d 4a 1a 1b 3d 3e 32 7f bd
       -0.11009741 0.0377295 0.037866868 -0.062303774
000340 34 38 4c bc 55 97 df bd 60 57 a4 bc 5a 8f e1 bd
       -0.012464572 -0.10917536 -0.020061195 -0.1101367
000350 18 bd 28 bd 61 b7 e2 3c 40 52 89 3c 27 bd 09 3e
       -0.04119596 0.027675333 0.016762853 0.13451062
000360 a7 43 9a 3d 2d 6b 91 bd f7 dd 8a bd c5 3c b7 3d
       0.07532435 -0.0710052 -0.06780618 0.08947138
000370 94 68 f4 bd f0 d2 d5 3c c1 e9 82 bd 9e 22 fb 3c
       -0.11934009 0.02610156 -0.06392241 0.030656155
000380 64 3b b0 bd 96 df ce bd 19 58 11 3c 77 02 65 3d
       -0.08605078 -0.101012394 0.008871102 0.055910554
000390 74 22 45 bd 5e a1 53 3d ca 1f 0d 3d f3 6c 44 3d
       -0.04812856 0.051667564 0.034454145 0.047955465
0003a0 65 20 2c 3d db f5 f2 3d 65 e2 6f 3d 40 27 8e bd
       0.04202308 0.118632995 0.058565516 -0.0694108
0003b0 88 90 95 bc b8 0c d8 3d df 23 c3 bc 34 9a fc bc
       -0.018257394 0.10549301 -0.023820816 -0.030835249
0003c0 29 16 92 3d f6 35 d0 bd d4 53 80 3a 36 b8 46 bc
       0.07133133 -0.10166542 0.0009790608 -0.01212888
0003d0 7f 04 5a 3d c2 98 99 3d dd ad 45 3d b3 d1 43 bd
       0.053226944 0.07499839 0.048261512 -0.047807407
0003e0 52 63 d8 bd b2 2c f9 3d 77 bd 06 ba 94 23 a3 3c
       -0.10565819 0.12166728 -0.0005139927 0.019914426
0003f0 b0 1f 27 3d 34 aa ad 3c 65 01 cb bc eb 6a d8 bd
       0.040801704 0.021199323 -0.024780938 -0.10567268

lstm.bias_hh_l0 f4 [256]
000000 5c 05 ca 3d bc c1 0f 3d 85 af 11 bd fc 8d 36 ba
       0.098643035 0.03509687 -0.03556778 -0.00069639063
000010 6a 89 17 bd a9 74 ac 3d 9b 7f 0f bd 78 bb 21 3e
       -0.036996283 0.08420689 -0.035033803 0.1579417
000020 a6 dc b5 bd 71 ef 28 bd d2 ba a7 bd 9f 9e bc bd
       -0.08879976 -0.041243974 -0.0818993 -0.09209942
000030 cd e3 1e bd 92 b6 34 3d cf 7c 43 bd b8 3e ea bd
       -0.038791467 0.044119425 -0.04772645 -0.11437744
000040 c5 65 57 3d df 65 de bd 05 24 05 3e 1d 13 ea 3d
       0.05258729 -0.10859274 0.13002022 0.11429427
000050 66 01 14 3d 50 ad d3 3d 3d 1b fa 3d 48 02 b5 bd
       0.036134146 0.10335791 0.122122265 -0.08838326
000060 6f b3 a6 3d 6d 89 78 3d 6a f5 de 3d bb a1 db 3d
       0.08139693 0.060677934 0.10886653 0.10724207
000070 97 9e ea 3d e1 02 d5 bc a4 2e 24 3d 0e 43 07 3d
       0.1145603 -0.02600235 0.040083542 0.033022933
000080 39 5c 62 bd 72 fe c1 bc de 59 e8 3d 58 f4 2c bd
       -0.05526373 -0.0236809 0.11345266 -0.04222521
000090 b1 95 e8 bc a7 cd cb 3d e9 45 b0 bd e2 38 80 bd
       -0.02839169 0.099513344 -0.08607084 -0.062608495
0000a0 80 90 d1 3d 78 ef 83 bb b7 47 2e bd c8 c5 8e bd
       0.10232639 -0.0040263496 -0.04254886 -0.069713175
0000b0 2d 99 d1 3d 36 2b fa 3d 07 a4 b9 bd 24 90 e7 bd
       0.10234294 0.12215273 -0.09064489 -0.113067895
0000c0 7b 24 96 bd bc 77 83 3d 36 ad 08 3b 1e cf ad 3d
       -0.07331177 0.06419322 0.0020855195 0.0848677
0000d0 d1 02 69 3c f9 21 43 3d 69 76 d6 bd 5b 05 10 bc
       0.014221863 0.04763982 -0.10471804 -0.008790339
0000e0 e4 c0 9a bd 64 a6 b3 3c dc 3c 79 bc 7b cf 11 bd
       -0.07556322 0.021929927 -0.015212264 -0.03559826
0000f0 86 6d ad 3d f1 70 c0 3d 56 9b 0d 3d ce d0 07 be
       0.084681556 0.09396542 0.034571968 -0.13263246
000100 c3 a3 09 be a8 5a 1d bc 43 85 06 bd f6 64 b3 bd
       -0.13441376 -0.009604134 -0.032841932 -0.08759491
000110 2d ef d5 bd ce a3 9f 3d c2 20 b7 bd 39 20 ea 3d
       -0.1044601 0.07794915 -0.08941795 0.11431927
000120 f1 ac 04 bd 9a 07 0f bd 42 13 b0 3c cd f2 65 bc
       -0.032391492 -0.03491936 0.021493558 -0.014034939
000130 ef 70 80 3a 5d b7 f8 bc 2b 63 85 bd 85 c3 8f 3c
       0.0009799282 -0.030360872 -0.065130554 0.017549286
000140 c4 96 39 bc 37 cf e3 bd 1b eb 4f bd 35 0b 53 3d
       -0.011327449 -0.111235075 -0.050761323 0.05152436
000150 2d d5 f6 bd 1b 43 94 bd 8f d8 d9 3d 23 d7 2b 3d
       -0.12052379 -0.07239362 0.106370084 0.041953217
000160 15 a1 42 3d c1 fc fe 3d dd d5 9d bd 2b 1c b6 3d
       0.0475169 0.12450553 -0.07706807 0.08892091
000170 36 4d d1 3c 56 30 8d bb 7a 09 9b 3d ec 0b c5 3d
       0.025549512 -0.0043087406 0.07570167 0.096214145
000180 91 5c ac 3d fe 7f 72 bc da 23 35 bd c6 f1 2e 3c
       0.08416093 -0.0148010235 -0.044223644 0.0106777605
000190 a2 78 d2 3d ca b7 f9 3d e8 63 3a bd 65 72 d8 3c
       0.10276915 0.12193258 -0.045505434 0.026421735
0001a0 ab f3 dd bc 66 3f db bb 7d 26 d6 3c 02 d5 1e 3d
       -0.027093729 -0.0066909073 0.0261414 0.03877736
0001b0 f0 60 b6 3d bf 0a 04 3d 58 58 f3 bb 3c 12 bb 3d
       0.08905208 0.03223681 -0.007426303 0.09134337
0001c0 4b 04 90 3d f6 2e 09 3e bc 43 4c 3b 51 71 93 3d
       0.07032069 0.1339682 0.0031168303 0.07199348
0001d0 ad 74 e4 bd 6b 7e e4 3d 98 2e c4 3d bc 3b 6d 3d
       -0.11155067 0.11156925 0.095791996 0.057918295
0001e0 a8 3b b9 bd ee 80 28 bb 60 2f 95 3c 3d 2f f5 3d
       -0.09044582 -0.0025711614 0.018211067 0.119719006
0001f0 eb c0 c0 3c 6a b8 13 bd 74 63 eb bd 0c a9 d4 bd
       0.02352949 -0.036064543 -0.114935786 -0.10383806
000200 30 a6 7c bd cf 80 1c 3d db b8 b4 bc ee 24 87 bd
       -0.061681926 0.03820878 -0.022060802 -0.06598841
000210 d1 8f 35 bb 30 76 85 3d b1 24 77 3d 0e 02 f7 bd
       -0.002770413 0.06516683 0.060337726 -0.12060939
000220 62 4a ba 3d f5 40 c0 3d 89 53 2e 3d 6c 81 d6 3d
       0.09096219 0.093873896 0.042560134 0.10473904
000230 7d b0 bd 3d 43 7c 19 3d 56 4d 84 bd a6 56 c2 3d
       0.09262178 0.03747202 -0.06460063 0.09489183
000240 84 94 bf 3d b1 44 eb 3d 5f ac 33 3b 28 26 77 bd
       0.09354499 0.11487711 0.0027415974 -0.060339123
000250 4c 71 fd bd 0c 2e dc 3d 3e 51 fa 3d 5f 35 13 3d
       -0.12375125 0.1075097 0.12222527 0.03593957
000260 c0 9b bc bd 00 df 8b 3b 5e 18 02 3d cd 55 35 bd
       -0.092093945 0.004268527 0.03176152 -0.04427128
000270 24 76 d0 3d ef bd 73 3d bf f4 1f 3c 48 45 fd 3c
       0.101787835 0.059507307 0.009762942 0.030916825
000280 d9 ad ab 3d f0 d0 f2 3d c8 59 6d bd 3a 6b 03 3d
       0.08382768 0.11856258 -0.05794695 0.03208468
000290 78 0f ab 3c 2c 93 78 3d 51 aa c1 3d dd 8d a4 bc
       0.0208814 0.06068723 0.094563134 -0.020087177
0002a0 4d 72 c8 bb 36 86 64 3d b2 6e bd bd e8 24 34 bd
       -0.0061171413 0.055792056 -0.09249629 -0.04398051
0002b0 a1 27 7e bd 0e 42 fc bd 4e d4 b1 3d 9b 1f dc bc
       -0.06204951 -0.123172864 0.08683072 -0.02687054
0002c0 aa 72 7b 3c 8e 78 ab bd 7a 06 99 3d 9f 2b e0 3d
       0.015347162 -0.08372603 0.074719384 0.1094582
0002d0 a8 93 d8 bc c0 cf 8e 3d f0 5d 5a bc c4 b8 b8 3d
       -0.026437595 0.06973219 -0.0133280605 0.09019616
0002e0 0c 47 35 bd 03 63 90 bd ea 24 be bd 20 7a d0 3d
       -0.04425721 -0.07050135 -0.092843845 0.101795435
0002f0 e0 84 b8 3d a4 82 38 bd dc b7 f4 bd 43 53 e8 3d
       0.09009719 -0.045046464 -0.11949131 0.11344006
000300 1a a0 5c 3b 7e ad 03 bd ba 86 a0 bc ba 5e f1 bc
       0.0033664764 -0.032147877 -0.019595493 -0.029464114
000310 4b 35 b2 bd ff 23 84 3d 22 a2 00 3d 18 2a 12 3e
       -0.08701571 0.06452178 0.031404622 0.1427387
000320 f5 aa f0 3d 7d 1e 04 be 58 1c be bd 8a c7 d8 bd
       0.117513575 -0.12902255 -0.0928275 -0.10584934
000330 d2 10 dc bd a0 78 6f 3d f9 98 ce bc 82 36 ae bd
       -0.10745396 0.058464646 -0.025219427 -0.0850649
000340 51 b4 e2 3d 21 eb 1b bd 85 b4 8d 3d 45 6d 58 3d
       0.11069549 -0.038066033 0.06919197 0.052838583
000350 dc 1e ed bc b6 14 0c be fa 53 d0 bd 54 38 b4 3d
       -0.028945379 -0.13679776 -0.10172267 0.08799806
000360 40 8e bb 3d 73 01 ed bd 05 67 95 bd 6b 08 a2 bd
       0.091579914 -0.11572542 -0.0729504 -0.07911762
000370 47 6c 04 be 1c 45 94 bd 47 c3 dd bd f4 7e 7e bd
       -0.1293193 -0.07239744 -0.10828262 -0.06213279
000380 64 5a 90 bd 94 f8 28 bd 6f 95 dc 39 42 f2 f7 3d
       -0.07048491 -0.041252688 0.00042073007 0.12106754
000390 da c5 87 bd 62 a7 3c bd 3a 8f 5a 3d 51 53 47 3b
       -0.06629534 -0.046058066 0.053359248 0.003041465
0003a0 1c 8c 78 3d 7a e1 be 3c f5 27 22 bd 7c 8a da ba
       0.060680494 0.023300875 -0.039588887 -0.0016673352
0003b0 5a df 32 bd 3c 7c b9 bd 69 c0 2f be 94 eb 11 be
       -0.043670036 -0.09056899 -0.17163242 -0.14250022
0003c0 76 ff c4 3d b0 31 94 3d a7 bd 82 bd 16 b1 da bd
       0.09619038 0.0723604 -0.063838296 -0.10678308
0003d0 ac 4c 9f bd ed f4 eb bc 50 6e 9e bd 30 bc 7e bd
       -0.07778296 -0.028803313 -0.07735884 -0.06219119
0003e0 86 c6 62 bd 45 92 43 bc 4a 5a 9d bd 8d 97 9d 3d
       -0.055365108 -0.011936729 -0.07683237 0.07694922
0003f0 29 71 8f bd b2 5e 5b bd 1a 36 fe bc 07 f4 8f bd
       -0.070040055 -0.053557105 -0.031031657 -0.070289664

lstm.weight_ih_l1 f4 [256, 64]
000000 da 67 d6 bd 99 af 9f bc 19 af f5 3b 56 c9 b6 bd
       -0.10469027 -0.019492911 0.00749768 -0.089251205
000010 99 b6 6d 3b 08 e3 31 3d 5b 62 e4 bd 74 57 f4 bc
       0.0036272167 0.043429404 -0.11151572 -0.029826857
000020 6d 72 77 3d f9 a5 04 be 04 81 09 be ae 4f da 3c
       0.06041186 -0.12953939 -0.13428122 0.026649322
000030 61 49 e3 bd a0 6f 82 3d 84 d3 be 3d cc ec d3 3d
       -0.1109798 0.06368947 0.09317687 0.103479
000040 b6 86 dd bc 97 ad 98 bd 30 cf 96 bd 29 a8 06 be
       -0.027041774 -0.07454985 -0.07363737 -0.13150086
000050 13 51 eb bd 1d fa b2 3c 6a 8e ea bd fd c7 57 3d
       -0.11490073 0.021847779 -0.114529446 0.052680958
000060 b8 fe 91 3d 0c 4f 65 3d 57 42 99 3d 9a f0 18 be
       0.07128662 0.055983588 0.074833564 -0.14935532
000070 a2 bf 1c bd 21 9a cc bd 2c a8 1f bd 65 14 2d bc
       -0.038268693 -0.09990335 -0.03897874 -0.0105639445
000080 c1 7a 93 3d b0 cb 81 bd 19 ca 9f 3d d0 31 5d 3d
       0.07201148 -0.063376784 0.07802219 0.054002583
000090 5d 60 a6 bd ae a6 e5 bc 9a cb d0 3c e1 97 f7 bc
       -0.081238486 -0.02803358 0.02548771 -0.030223789
0000a0 f8 da b1 bd 66 3d cd b9 e2 e8 80 bc be 9a c0 3d
       -0.08684343 -0.00039146392 -0.015736047 0.09404515
0000b0 ad 1e 09 be 3a 1a 6a 3d f8 e3 26 3c 5f 1d ea bc
       -0.13390608 0.057153918 0.010186188 -0.028578458
0000c0 d9 72 bc bd 02 b8 5b ba bd b4 91 3d 2b c1 7d 3d
       -0.09201593 -0.00083816063 0.07114551 0.061951797
0000d0 73 e7 63 bd 3a 00 8c bb 8c a8 da bd 9f 26 82 3d
       -0.05564065 -0.004272488 -0.10676679 0.06355023
0000e0 04 71 0d 3d 09 62 af bd 2d dd ed bd b8 99 a4 bd
       0.03453161 -0.085636206 -0.116144516 -0.08037132
0000f0 11 41 c1 bc d0 b8 e9 3d f5 cd b5 bd 94 c7 88 3d
       -0.023590596 0.11412203 -0.08877174 0.066786915
000100 85 56 3e bc cf 94 bc bd 1c cb a1 3d d0 0c 76 3d
       -0.011617308 -0.092080705 0.07900068 0.060070813
000110 72 9d a0 3d ea cb 78 3d 9c 8e 59 3d d7 75 12 be
       0.0784253 0.060741343 0.05311452 -0.14302765
000120 17 b1 b8 3d 1c ce 68 3c 62 f1 5c 3d fb 15 0a bc
       0.09018152 0.014209297 0.053941138 -0.008428092
000130 69 62 e5 3d f5 66 84 bd b6 9b a5 bc 0b cb 02 3e
       0.11200411 -0.0646495 -0.02021585 0.12772767
000140 e0 0f f8 bd b4 b8 82 3c c9 a9 b9 3d 42 11 fc 3d
       -0.12112403 0.015957214 0.09065587 0.12307979
000150 55 09 0b bd e6 82 95 bd e4 b8 22 be b4 8d 20 3d
       -0.033944447 -0.073003575 -0.15890843 0.03919764
000160 82 e7 8c bc ea 61 86 3c 00 0b 5e bd d5 e9 7d bd
       -0.017200235 0.016404111 -0.05420971 -0.061990578
000170 33 c5 cd 3d 23 77 64 bd d6 4a 04 be 4e 42 e4 3c
       0.100473784 -0.05577768 -0.12919173 0.027863648
000180 a4 0f fe 3c 4e 78 ed bd 3c a5 08 3d 4b 4d 19 be
       0.031013317 -0.11595212 0.033360705 -0.14970891
000190 f9 41 03 3d f4 59 db bc 36 af e6 bd d8 7b dd bc
       0.03204534 -0.026776291 -0.112638876 -0.027036592
0001a0 6c b9 f3 3d e1 6a 67 3d 6b 67 f1 3d 7d 32 0a be
       0.11900601 0.056498412 0.117873035 -0.13495822
0001b0 9e 2d 5c 3d 5e f2 a1 3d 75 ae e6 bc af 22 55 bc
       0.05375444 0.07907556 -0.02815936 -0.0130087575
0001c0 96 0a 43 bd 01 d9 05 be 2b 83 9a bd 90 2e bc 3d
       -0.047617517 -0.13071062 -0.075445496 0.091885686
0001d0 63 a9 a4 bd a2 1b c8 3c 48 eb c9 bd 58 7b ec bc
       -0.080401205 0.024427239 -0.098593295 -0.028867409
0001e0 5e b3 0c 3d 27 1d 3e 3c b7 76 35 3d 4e b7 60 bd
       0.034350745 0.01160363 0.04430267 -0.054862313
0001f0 66 61 81 3d d8 fd a5 bd fa c0 29 bc ba 61 a5 3d
       0.063174054 -0.081050575 -0.010360951 0.080752805
000200 4f 0e 4d 3c 96 51 77 bd fc 5a ce bd dc fa a5 3d
       0.0125156185 -0.06038054 -0.10075948 0.08104488
000210 b5 cc 56 3c e6 2a f8 bd 4a 83 fd 3d dd cb 91 3c
       0.013110329 -0.12117557 0.12378557 0.017797405
000220 51 3f 01 3e 40 b3 eb 3c 00 3e 6e 3d 75 b8 8f bc
       0.1262181 0.028771996 0.058164597 -0.01754401
000230 9a 89 1c 3e 61 f9 9a bd 45 15 d7 bd e1 97 0e 3c
       0.15286866 -0.075670965 -0.10502104 0.008703203
000240 04 cd 75 bc 18 a1 07 be 75 b6 25 3d ee 33 8a bd
       -0.015002493 -0.13245046 0.040457208 -0.06748186
000250 13 50 69 bd 10 35 19 be 38 5b 4f 3d 3b 50 bf bd
       -0.05696113 -0.14961648 0.050624102 -0.093414746
000260 ce 4a 04 bd bb cd ae bd 97 9f 9a bd 2e c2 03 be
       -0.0322979 -0.08535334 -0.075499706 -0.12867042
000270 23 95 b5 3b 0d 55 b1 3c 99 10 4a 3d 3b e9 0f 3e
       0.00554146 0.021647 0.049332235 0.14053814
000280 37 a2 cc 3c bf 38 53 bc 4d 5b 01 bd d9 59 27 3d
       0.024979694 -0.012891947 -0.03158121 0.04085717
000290 24 b0 3a 3d 72 f8 15 3d 58 be 7b bd 4e 3a 6a 3d
       0.045578137 0.03661389 -0.061460823 0.05718451
0002a0 10 b8 5a bd 7c 39 fb bd 0f 4e 6d 3d 64 78 f3 bd
       -0.053398192 -0.12266824 0.05793577 -0.11888197
0002b0 b6 fe 3d 3d 0a 9c 0f be 3f 6f af 3d 40 65 66 bd
       0.04638549 -0.14024368 0.085661404 -0.056248903
0002c0 90 00 88 bd 35 b4 36 3d c9 d3 c7 bd 8b 1e a5 3d
       -0.06640732 0.044605453 -0.09757192 0.08062466
0002d0 20 06 d5 3d 26 11 0e be 5d dc b3 bd bd f7 05 be
       0.10401559 -0.13873729 -0.08782265 -0.13082786
0002e0 3a 6b 49 bd f1 8a b0 bd f2 de 94 3d a9 f3 2c bd
       -0.049174525 -0.08620251 0.07269086 -0.04222456
0002f0 6a 62 90 3c e3 78 59 3b 8e c3 43 3c d8 dd 46 bd
       0.017625052 0.0033183626 0.011948479 -0.04855141
000300 fe 32 67 3d b5 ae f8 3d 00 d1 0a be 1a 91 ad 3c
       0.056445114 0.12142698 -0.1355629 0.021187354
000310 ea a1 f5 bc 08 0c 0e 3d 7d 74 cd bd 02 0e e7 3d
       -0.029984433 0.034679443 -0.10031984 0.11281969
000320 df 23 26 3d b4 d5 15 3d 09 db 92 bc b4 7b db 3d
       0.040561553 0.036580756 -0.01792671 0.10716954
000330 7b 0c 6e bd 06 36 fa bd 22 05 61 bd 4d f1 cd bc
       -0.05811737 -0.122173354 -0.054936536 -0.025139475
000340 0a 00 80 3d f4 b6 ca 3d 80 dc 87 3c d6 50 09 bd
       0.062500075 0.09898177 0.016584635 -0.033524357
000350 c6 02 1b bd 39 82 5f bd 77 97 de bc f2 21 0e 3e
       -0.03784444 -0.05456755 -0.027171833 0.13880137
000360 da 06 ee 3c 74 20 f7 3d 81 19 ec 3d 3a f6 a4 3d
       0.029056001 0.12066737 0.11528302 0.080547765
000370 a2 20 1e bd 6a af 43 3d 62 0f de bd e8 a4 94 3d
       -0.03860534 0.04777471 -0.10842778 0.07258016
000380 5d 8f 61 bd 1f 79 d6 3c 01 ff 8c bd a2 1b 65 bc
       -0.055068363 0.026180802 -0.06884576 -0.013983639
000390 ba ad b6 3c ce 86 80 3c 2f 7e 1a bd 0d 37 c2 bd
       0.022299636 0.01568928 -0.037717994 -0.09483156
0003a0 09 f1 03 3d cc 10 be 3d f4 14 15 3d 67 63 91 bc
       0.03221229 0.092805475 0.036396936 -0.017747594
0003b0 7b fa cb bd 18 95 e7 bd 8c 28 c7 bd 2b 81 e5 3d
       -0.09959885 -0.11307734 -0.097245306 0.112062775
0003c0 fe 04 b1 bd f9 f7 b0 3d a4 88 93 bd e6 4c 60 bd
       -0.0864353 0.08641047 -0.072037965 -0.054760836
0003d0 c0 46 3d 3d d2 b9 43 3d cc f8 a3 3d 11 e1 b8 bd
       0.04621005 0.047784634 0.080064386 -0.09027303
0003e0 b7 c5 66 bc 22 8f af bd fa 11 ad bd e5 5c 99 ba
       -0.014085225 -0.08572222 -0.084506944 -0.0011700658
0003f0 df 01 e2 ba 38 85 ec bc bb 95 08 bd 95 6b d5 bd
       -0.0017242989 -0.028872117 -0.03334592 -0.1042091

lstm.weight_hh_l1 f4 [256, 64]
000000 ac 58 08 be fd 72 bf bb ec 19 c1 bd 40 0d f2 bc
       -0.13315076 -0.005842565 -0.09428772 -0.029547334
000010 47 15 95 3d 08 8b 0d be 08 eb de 3d 37 0a e6 bd
       0.07279449 -0.13822567 0.108846724 -0.11232417
000020 a1 5f 00 3d e2 5f ce bd 8f 55 48 bc 9a b0 d6 bd
       0.0313412 -0.10076882 -0.01222743 -0.10482903
000030 7a 45 d2 bd 43 0d 4f bc c5 61 92 bd 08 54 8b 3d
       -0.10267158 -0.012637439 -0.07147554 0.06803137
000040 be 57 84 3d 8e 9f 03 be f9 13 06 3d 76 af 40 3d
       0.06462048 -0.12853834 0.03273389 0.047042333
000050 a2 12 80 3d 4a 08 09 3e 23 c9 92 3c e9 52 97 bd
       0.06253554 0.13382068 0.017918175 -0.07388861
000060 b1 09 2b bd c3 d5 08 bd 49 d9 ce 3c ad 7b 0f bb
       -0.04175729 -0.033406984 0.025250094 -0.0021893785
000070 0a 8f 58 bc 46 fa fc 3c 01 11 d7 bb a2 2f da 3d
       -0.013217697 0.030881058 -0.0065633063 0.106536165
000080 7b 3f 3b bd 27 9d 69 3d da 58 ee 3d f9 1d a9 bc
       -0.045714837 0.057034638 0.11638041 -0.020644175
000090 c7 9a b4 bd ef 1b 8e bd c3 22 da 3d 6e 74 cd bd
       -0.08818584 -0.06938922 0.106511615 -0.10031973
0000a0 08 8c 8a bc f1 e1 58 bd 39 24 a2 3c 5b dc c2 bc
       -0.016912475 -0.05294985 0.019792663 -0.023786714
0000b0 5f 47 59 bc 30 1f 1e 3d 6c cb ab bb 2b 15 01 bd
       -0.013261645 0.03860396 -0.0052427556 -0.031514328
0000c0 e5 5e 12 3e 76 51 05 be b1 30 e9 3c 55 6c 3a 3d
       0.14294012 -0.13019356 0.0284656 0.04551347
0000d0 15 aa 2e 3d 89 16 33 bd 99 ac 81 3d 4c 68 15 3d
       0.04264267 -0.043722663 0.063317485 0.03647642
0000e0 f3 48 e3 bd b8 62 61 bd 4d cd c2 bd 98 3f 3d bc
       -0.11097898 -0.055025786 -0.09511814 -0.011550806
0000f0 46 fe 53 bd e7 af 26 bd 5e f5 07 be 94 e6 db bd
       -0.051756166 -0.040695097 -0.13277194 -0.10737339
000100 34 12 6b bd 2d 1b f0 bd ea 51 97 3c c9 d4 8b 3d
       -0.057390407 -0.11723933 0.018471677 0.06827695
000110 3f 0e f2 bc 7b 7d e0 3c 73 bd 82 bd 45 12 02 3d
       -0.029547809 0.027403584 -0.06383791 0.031755704
000120 ac af f7 3d 9e 1c c9 3d 02 bf ac bd 01 f7 04 3d
       0.120940536 0.098199114 -0.08434869 0.032462124
000130 d6 ae ae 3b ac f8 fc bd 3b 20 9e bd c9 7a cc 3c
       0.0053309007 -0.12352118 -0.07720991 0.024960892
000140 0e 55 17 3e 82 5d 19 3e 5d 15 49 bd bd 7b 0c 3e
       0.1477854 0.14977077 -0.04909264 0.13719077
000150 fc aa e6 3c 25 fc c7 3d 10 af a3 3d af e1 c1 bd
       0.028157704 0.0976489 0.07992375 -0.09466874
000160 4c b9 2f bd 7e d1 24 3d 87 ab a7 3d ce 0c ba bd
       -0.042901322 0.04023885 0.08187013 -0.090844736
000170 23 ba 9d bd f7 a4 ab bd f4 81 69 bd 78 95 70 bd
       -0.077015184 -0.08381074 -0.0570087 -0.058736295
000180 ff c3 22 be 37 b1 61 bd c0 05 cb bd 0a f3 8b bb
       -0.15895079 -0.055100646 -0.09913206 -0.004270916
000190 00 e9 86 3d c1 8e 9b bd 9b 08 0f 3e e6 ee e7 bc
       0.0658741 -0.075955875 0.13968126 -0.028312158
0001a0 56 f2 9b bd 7b c9 d9 bc 1e be 90 b6 56 21 e8 bd
       -0.07614581 -0.026585331 -4.313667e-06 -0.11334483
0001b0 64 39 08 3e 2c 85 f9 3c 74 15 22 bd b8 86 ab 3d
       0.13303143 0.03045901 -0.03957124 0.08375305
0001c0 1b ea da bd 32 bc 26 bd ee 51 06 3d 3e 15 9c bd
       -0.10689183 -0.04070682 0.032792978 -0.07621239
0001d0 11 66 8d bd 36 3d 49 3d 31 44 12 3e c7 89 1a 3e
       -0.06904233 0.04913064 0.14283825 0.1509162
0001e0 b4 bf f6 3c 07 40 50 3d b9 a8 06 be 51 67 49 bd
       0.030120708 0.05084231 -0.131503 -0.049170796
0001f0 f4 c3 84 3d 17 3a 21 bd ec 01 94 3c f1 4d 14 be
       0.064826876 -0.03936204 0.018067323 -0.14482857
000200 c0 16 a0 bc cc 88 7c 3d dd 30 c2 bb 47 63 fd bb
       -0.019542098 0.061653897 -0.005926235 -0.007732782
000210 92 b5 ab 3c 0f f9 b8 bd 3c 9a d5 3d e4 e6 1c be
       0.020960603 -0.09031879 0.104298085 -0.15322453
000220 1a 7c 60 bd 27 25 d7 3d 52 20 0c be e6 cf 63 bd
       -0.054805852 0.10505133 -0.13684204 -0.05561819
000230 11 35 70 bd d4 70 78 3d 7c 35 9f 3d dd 8f 1f 3d
       -0.058644358 0.060654476 0.07773873 0.038955558
000240 70 fd 86 bd 81 a6 45 bd ea c4 9a bd 97 14 32 3b
       -0.06591308 -0.048254494 -0.075570896 0.0027172917
000250 9d ab b5 3d 5f 9a 4d bb e8 cd 64 bd 5a eb 7c 3d
       0.08870623 -0.003137253 -0.05586043 0.061747886
000260 29 a3 98 bd fa c9 b2 bd ee a2 60 3d 00 d6 ef bd
       -0.07452995 -0.0872993 0.05484288 -0.11710739
000270 2a 36 9b bd 66 0b a7 bd fc d8 d2 3d ba 13 7e bb
       -0.0757869 -0.08156471 0.10295293 -0.0038769082
000280 bb d5 0a 3d 69 c6 74 bd 80 a4 28 bd 7d 1a cf bd
       0.033895236 -0.05975953 -0.041172504 -0.10112474
000290 09 6c 80 3d df 63 00 3e eb 8d bf ba 10 58 ce bd
       0.06270606 0.12538098 -0.0014614438 -0.1007539
0002a0 24 38 b9 bd 3f 8a eb bd 56 5e d1 bd 92 92 ca bd
       -0.09043911 -0.11500978 -0.10223071 -0.09891237
0002b0 6a 7a e4 3d 95 1f d4 3d 21 93 9e 3d d7 a9 b1 bd
       0.11156161 0.10357586 0.07742906 -0.086749725
0002c0 61 da 89 3c 54 bc 6e bd 96 12 13 bd 2f ac 83 bc
       0.016827764 -0.058285072 -0.035906397 -0.016073314
0002d0 46 e7 04 3e c5 eb b7 bc 8d d9 10 3e 1e dd d8 bd
       0.12978849 -0.02245129 0.14145489 -0.1058905
0002e0 1f e0 ae bd 21 89 a2 bd 62 7c ba 3d 7a 4c 88 bd
       -0.085388415 -0.079363115 0.091057554 -0.06655212
0002f0 01 c1 16 bd 17 11 9a bd 0f 5c 75 3d 48 4d e3 3d
       -0.036805157 -0.07522791 0.059902247 0.110987246
000300 8a 93 df bd 51 73 bf 3d 7e 45 f1 bd b4 9f 01 bd
       -0.10916813 0.09348167 -0.11780833 -0.031646445
000310 d7 3f db 3d 92 8c bd 3d 99 7e 50 3d bc 85 a7 3d
       0.10705536 0.09255327 0.050901983 0.08179805
000320 12 6a c1 bd d0 23 90 bd 20 e8 c0 3d bc 72 d5 3d
       -0.094440594 -0.07038081 0.09419274 0.104222745
000330 c8 fa ae bb a3 35 88 bd 14 ea 27 3d ba 87 33 3c
       -0.005339954 -0.066508554 0.04099472 0.010957653
000340 aa 76 bb 3d 8c 91 4b 3d 9c 26 ec bb e5 0f a1 3c
       0.09153493 0.04969935 -0.007206751 0.0196609
000350 48 a9 80 3d a0 00 81 bd ee c0 dc 3c dd bc fd bc
       0.06282288 -0.06298947 0.026947465 -0.030973846
000360 18 81 f7 bc aa 34 d6 3d 8f 84 9b 3d 94 16 ec 3c
       -0.030212924 0.104592636 0.07593643 0.02881936
000370 10 00 87 bc 38 aa 4e bc 22 95 b9 3b db dd 7f 3d
       -0.016479522 -0.0126138255 0.00566353 0.062467437
000380 9e 0b 8d 3d 2c c8 c8 3d 71 a2 f5 bc fb 35 48 bd
       0.068869814 0.09803805 -0.029984685 -0.048879605
000390 c2 17 52 bc ec 4d 2c bd 66 c5 e6 bd db 80 04 be
       -0.012823047 -0.0420665 -0.112681195 -0.1293978
0003a0 a9 c3 66 3b 41 e0 ab bd 75 03 ab 3c ba ea 13 3e
       0.0035211837 -0.083923824 0.020875672 0.1444501
0003b0 e6 f9 80 3d 32 d2 e3 3d bd 86 0f bd 4d 9f e1 3d
       0.06297664 0.11124076 -0.035040606 0.11016712
0003c0 22 55 e0 3c eb 69 72 bd 21 e9 7e 3c 38 cd 27 bd
       0.027384344 -0.059183042 0.015558512 -0.040967196
0003d0 fe 31 bf 3d a6 83 14 bd 46 1b 25 3d f0 f9 57 bd
       0.09335707 -0.036258362 0.040309213 -0.052728593
0003e0 c0 12 aa 3d 9e 17 17 be 89 2d cd bc 14 53 1d bd
       0.083043575 -0.14755103 -0.025046127 -0.038409308
0003f0 99 03 82 3b 04 f3 d9 bd 20 42 87 bd 71 89 c5 3c
       0.003967714 -0.10642055 -0.06604409 0.024113389

lstm.bias_ih_l1 f4 [256]
000000 00 ad d0 3d 07 74 f0 bd 93 7f 9e 3d 08 6d 65 bd
       0.10189247 -0.117408805 0.077391766 -0.056012183
000010 e1 48 07 bc 4d d2 ae bd 08 07 cf bc c4 a2 3a 3d
       -0.008257122 -0.085362054 -0.025271907 0.04556538
000020 72 94 af 3d d1 fc 44 3d 93 ae e5 3d cd ad 06 be
       0.085732356 0.048092667 0.11214938 -0.13152237
000030 24 0b cf bb e1 16 e4 bd 44 c6 bf 3d 99 86 f8 3d
       -0.0063184667 -0.11137176 0.09363988 0.121350475
000040 be f2 af bd 63 6e f2 bd b7 96 17 bc 01 f2 ae 3c
       -0.08591221 -0.11837461 -0.009252242 0.02135563
000050 b5 f3 ab bd 9e df 20 bc 2d c3 6d 3d c5 7d d4 bc
       -0.08396093 -0.0098189395 0.058047462 -0.025938878
000060 76 cc 6d 3d 66 12 fe 3b f9 1d 3d bd b9 a5 b2 bc
       0.058056317 0.007753658 -0.046171162 -0.021807538
000070 df ec a2 3d 5f f6 bc 3d 49 30 f3 bb 91 aa 08 3c
       0.07955336 0.09226679 -0.0074215275 0.008341447
000080 3c ae b3 3c a7 34 15 bd 2b 65 01 3d c3 ae 09 be
       0.021933667 -0.036427166 0.031590622 -0.13445573
000090 ca 39 cd 3d e4 a2 09 bd bb fd 09 3d ed 24 3d bb
       0.10020788 -0.03360261 0.03368924 -0.002886112
0000a0 3d 51 38 3d 43 22 2c 3d 74 0f a8 3d e2 82 db 3d
       0.04499935 0.042024862 0.082060724 0.10718323
0000b0 f0 e3 09 3e 3d b1 bb bd e9 69 b2 bd bf dc aa 3d
       0.13465858 -0.09164665 -0.08711607 0.08342885
0000c0 e2 ff 62 3d 71 f7 ec 3d c8 31 9d bd 38 70 e9 bc
       0.05541981 0.11570633 -0.07675511 -0.028495893
0000d0 31 e3 0e 3e 10 a0 d2 bc 77 b7 ec 3d a4 db bf bd
       0.13953854 -0.02571109 0.11558431 -0.09368065
0000e0 d7 30 dc bd 1a 4f 2c 3d e1 36 0a bc 57 30 a9 bd
       -0.10751503 0.042067625 -0.008435936 -0.08261173
0000f0 14 b5 75 bd 62 cb 87 3d 78 a0 9e bd 4c ff ea 3d
       -0.059987143 0.06630589 -0.07745451 0.11474475
000100 0e 4a 72 bd 35 ca 41 bc a8 f3 77 bd ae 5a bb 3c
       -0.059152655 -0.011827995 -0.060535103 0.022870388
000110 3d 94 8c bd 9a 06 06 bd 1f 15 b5 bd ba 81 49 bd
       -0.06864212 -0.03272114 -0.08841919 -0.049195983
000120 2e 36 90 3c 60 83 97 bd 27 ab 93 3c 41 ac 98 bd
       0.01760396 -0.07398105 0.018025948 -0.0745473
000130 22 fd d6 bd 6a 2c 6f 3d c0 5d 66 3d 2a 9f d9 3d
       -0.104975 0.058391966 0.05624175 0.10626061
000140 e0 77 e5 bb 78 c5 a5 bd 0d 2d 2b bc 39 22 a2 3d
       -0.0070028156 -0.08094305 -0.010447753 0.07916684
000150 7e a2 78 bd 11 7d 77 bd 2d 4e 0c bd 88 24 25 bd
       -0.06070184 -0.060422007 -0.03425424 -0.040318042
000160 b3 e1 44 3c b3 11 d9 bc 2a 3c 04 bc 77 1b 52 bd
       0.0120167015 -0.026497697 -0.008070985 -0.051295724
000170 e1 96 e1 3d 44 df 5d 3c d0 07 85 39 7f 91 06 be
       0.11015106 0.013542 0.00025373558 -0.1314144
000180 d3 6b ff bb c2 a9 a8 3d 9f eb 00 bc 6c a7 c6 bd
       -0.007794836 0.08235504 -0.007868676 -0.09699902
000190 2d d6 d5 3d c0 b0 0e 3e 48 eb ce 3d bc 83 ea bc
       0.104412414 0.13934612 0.1010347 -0.028627269
0001a0 6d f8 f0 3c f2 12 88 bc 05 31 8a bb e4 57 84 3c
       0.029415334 -0.016610596 -0.0042172694 0.01615519
0001b0 0a c5 ce bd f3 c8 7c 3d 1e 67 8d bb 12 a8 80 3d
       -0.10096176 0.061715078 -0.004315271 0.06282057
0001c0 9f 67 d9 bc 2e 13 89 bd 8e 73 8e bc 5f 2a 30 bd
       -0.026538668 -0.06693111 -0.017389085 -0.04300916
0001d0 a8 18 8f bd 43 25 01 3e 41 e7 1b bc 47 28 54 3d
       -0.06987125 0.1261187 -0.009515584 0.051796224
0001e0 f2 a3 57 bd 1f 68 6c 3d 9d 17 d4 3d e0 39 71 bc
       -0.052646585 0.057716485 0.103560664 -0.014723271
0001f0 bf 1c 99 bd 69 20 d1 bc f3 af a4 bd ee cf a8 bd
       -0.07476186 -0.02552815 -0.08041372 -0.082427844
000200 87 a6 d0 3d c9 f2 98 bb 4f a5 07 3e 96 3f d1 b9
       0.101880126 -0.004667614 0.13246654 -0.00039910962
000210 37 aa ec 3d 1a bd 57 bd 7c 2f 6d bd ac fc 1e bd
       0.115559034 -0.052670576 -0.057906613 -0.038815185
000220 e3 80 e2 bd 8b 36 dd 3d 20 9e 4c bd 71 33 17 3a
       -0.110597394 0.10801419 -0.049955487 0.0005767858
000230 d7 d8 74 bd cd 81 de 3d 84 1c b9 bd 68 ba 53 bd
       -0.059777107 0.10864601 -0.09038642 -0.051691443
000240 4c 5b c1 3d 71 c3 25 3d a8 a3 9d bd 6a fd 16 bd
       0.094412416 0.04046959 -0.076972306 -0.03686277
000250 68 6e 20 3d a2 a2 8d 3c 44 b0 b0 3d 24 1c db 3c
       0.03916779 0.017289463 0.0862737 0.026746817
000260 2e 52 d6 bc 80 12 c2 3d 17 63 fc 3d 97 f4 88 bd
       -0.026162233 0.09476185 0.123235874 -0.06687277
000270 57 dc 6d bd d7 59 94 bc 56 e8 e5 bd 17 91 ba 3d
       -0.05807146 -0.018109245 -0.11225955 0.09109705
000280 c9 68 64 3d 06 b5 b6 3d 8f b2 85 3c 2c b3 f2 3c
       0.055763993 0.08921246 0.016320495 0.029626451
000290 ce 06 41 3d 03 90 af 3d 73 e3 7c 3c 49 d4 c0 3d
       0.04712563 0.0857239 0.0154350875 0.0941549
0002a0 b2 10 a2 bd 85 86 56 3d 68 4c 74 3d 43 f8 91 bc
       -0.07913341 0.05237438 0.05964318 -0.017818576
0002b0 8d a5 23 3d 16 b2 c8 bb d3 8f eb bd 28 13 6f 3d
       0.039952803 -0.006124745 -0.11502042 0.05836788
0002c0 1c c0 27 3d c7 e1 86 3d 42 9a a2 3d 7a a8 67 3d
       0.040954694 0.06586032 0.079395786 0.056557156
0002d0 3e 10 7e 3d a7 d0 ee 3d 66 cb a5 3d 39 48 6d 3d
       0.06202721 0.11660891 0.08095436 0.057930205
0002e0 ab 7f 9d 3d ae d4 b7 bc 63 b0 03 3e 15 8e de 3d
       0.07690366 -0.02244028 0.12860255 0.10866944
0002f0 32 0f fa bd a0 17 d7 bd 12 de 7f 3d 69 b5 a2 3d
       -0.122099295 -0.10502553 0.062467642 0.079447575
000300 c4 bc a2 3d 75 19 23 bc 9d 7a ee 3c 3f 0e bd 3d
       0.079461604 -0.0099548 0.029111201 0.09231233
000310 41 cf 48 bd fa a8 72 bd 61 5d aa 3c ec 5d a0 bd
       -0.049025778 -0.05924318 0.02079648 -0.07830414
000320 1e a7 98 bd 59 9b 14 3e 6a c7 9c bd 84 61 4e 3c
       -0.0745375 0.14512385 -0.07655223 0.012596492
000330 6a d7 0f 3c 95 78 79 3c 2a e9 85 3d 7b 72 dc 3b
       0.008779386 0.015226503 0.06538613 0.0067275143
000340 09 51 1e bb 28 9e c4 3d 92 8f 60 3d e0 c8 14 3e
       -0.0024157187 0.096004784 0.05482442 0.14529753
000350 7b 83 0a 3e fc a6 d2 bd a5 fa 25 3d 43 cb 04 be
       0.13526718 -0.10285756 0.040522236 -0.12968163
000360 96 39 db bd 40 58 12 3c 63 50 d0 3d 3f 65 19 3d
       -0.10704343 0.008932173 0.101715825 0.03745007
000370 f1 6b c4 bd ac 2f bc 3d 8c 8c af bd b6 38 4d 3d
       -0.09590901 0.0918878 -0.08571729 0.050102912
000380 71 c9 ff 3d 18 c6 a8 bd 69 e9 f0 bd 4e 7a e0 3d
       0.12489594 -0.082409084 -0.117632695 0.10960828
000390 2f 27 c8 3d 71 0d 5a bd bd c3 ff 3a db 2e 05 3c
       0.09773099 -0.053235475 0.0019513291 0.008128847
0003a0 65 d5 ca 3c 1d 11 a6 bd eb 4d b5 bb 67 97 4a bd
       0.024759958 -0.08108733 -0.00553297 -0.049460795
0003b0 d4 88 09 3e db bd 40 3d 9c a6 fa 3d 95 69 ce 3d
       0.13431102 0.04705606 0.122388095 0.10078732
0003c0 c2 c6 c8 3d d5 c5 a8 3d a2 3a 8f 3c 98 d2 1f 3d
       0.09803535 0.082408585 0.017484013 0.039019197
0003d0 81 18 82 3d 9a c5 f5 bd c4 97 15 3d a8 2e 16 3e
       0.0635233 -0.1200058 0.036521688 0.14666235
0003e0 17 50 80 bc 15 17 14 bc c4 bb 83 bd 1c 82 97 bc
       -0.01566319 -0.009038706 -0.06432298 -0.018494658
0003f0 f0 83 03 bd 6c e6 34 3c e2 ac 7b 3c 94 f2 9d bb
       -0.032108247 0.011041265 0.015361043 -0.0048201773
